Project2/models/model2.pt (torch, 55274 bytes, 7 tensors)

weight f4 [64, 64]
00000000: 905c 25bd 8007 523c e4dc 2abd 98ff cfbc
00000010: a07c 2d3e 80c7 a3be 301c 30bd 38f7 bc3e
00000020: 7c4d 16bd 8b23 943c 8e07 26be f4b1 853e
00000030: 26aa 943d 2b0f 35bf ca29 b13d f952 823e
00000040: a8ff 2b3f 4b93 94be d0d8 6d3c 41aa b13e
00000050: 6176 e9bd a42d d3bd 39ea 9fbd e492 9fbf
00000060: 8b2c da3e 2282 243f 96e4 1f3f c6f1 84bd
00000070: 9f84 b43e 7a4e 913d 1a75 fe3d a420 f23d
00000080: ee90 fd3e 6c74 3d3d 5d67 de3d c715 5b3e
00000090: 7619 e4be b08d b0bc 31df 8d3e ded4 013f
000000a0: 44ab 5c3d 50db 47bd 8034 1a3f 3bf2 debd
000000b0: c821 d33d 8025 153c 5c0c b13d 3cda 043d
000000c0: d042 bcbc 4854 8b3d f864 0dbd ca3a a6bd
000000d0: c4ad e93d c013 91bd 4036 533b 20da 343c
000000e0: c602 2cbf 366b eabc 6787 1dbf 8ad0 9f3c
000000f0: d9a8 bc3d 0519 903e e05e dcbc 8a52 b33d
00000100: 82ba e5bd 40fc 82bd 10f2 debd 66e8 e0bd
00000110: 0d63 48bf f260 f83d ac3f 7ebd 9456 03bf
00000120: 2452 3a3d aa3c 013e d22b f03d 1fbe b1be
00000130: 3e9b dd3d 0b19 073e 70fb 50bf c3ad 33bf
00000140: 88d0 f3be 72ed c03d 5a06 cebd 3296 923e
00000150: ddce 66be ab49 c8bf bd7c cbbc d982 ebbe
00000160: 0ba6 8fbe 4734 53be 3940 813c 14e0 e9bd
00000170: 3d5c b6be f668 c03d 4076 adbc 20e6 593c
00000180: d72a adbc 83ad 963e 6727 083e 31da 163e
00000190: 49fe ac3e 00ac fbbc dccf 21be 7bf2 b7be
000001a0: d428 8e3d 1e9d d3bd 83f6 4cbd ffe5 123e
000001b0: 0a39 79be 60b1 ab3b 9843 b03c 3c32 8ebd
000001c0: 9c5b 3cbd b67e 843d a897 9cbd a0c1 f03b
000001d0: 62e4 b63d 58ff a4bd 34f6 0abd c27e 9fbd
000001e0: 57ab 4fbe 0912 96be 8065 23be 065a c03c
000001f0: 442c c33d 4547 cebd aafa d43d 3985 143c
00000200: 040b e0bd 20fe 403d 2093 1abd ce19 99bd
00000210: 752e e6be d00e c83d 9ccd 45bd ffa7 90bd
00000220: 2e4a e13d b69a adbe d4b8 8fbe fd70 f6bd
00000230: f086 35bd ccb0 4dbe f28d 7f3d f5a4 cbbe
00000240: b3f4 16bd d96b 56be 3e13 c2bd adc1 bf3e
00000250: 0774 213e 69e5 053e 2e3d 83bf 9724 7dbe
00000260: 4477 c13d 7717 853e 5b7f 843e 1272 a2bd
00000270: 7571 23bb 8c50 43bd 0261 a23d 64ef f53d
00000280: 3b51 2e3e 24f8 ec3e 3208 bbbe 4bbc ccbe
00000290: 237a 37be 84cb bfbd 57ba 60bf 5cf1 d8be
000002a0: 3876 ce3c a054 59bd 2383 833d ef0a 1abe
000002b0: 7d31 fcbe 3a3b cfbd 60b8 353d 2674 903d
000002c0: 3013 75bd 6cb2 39bd f462 cb3d c4c5 9fbd
000002d0: 1052 08bc 8889 c83c 5825 95bd 38fe 5b3d
000002e0: 0e40 dabd c998 74be 8d01 b2be 89ed 363e
000002f0: a132 69bd c85d 27be dae6 bd3d b40a 46be
00000300: 9830 ca3d ce7b 943d 808f 42bb 5af3 ef3d
00000310: b2b1 be3d 4116 44bf 66ea 943d 3998 1c3d
00000320: 1049 723c db22 3b3e 668d 08be 2692 a73d
00000330: b4f1 543d 6321 eabd ee5b 00bf 7881 4fbd
00000340: 902a 9bbe f8b0 86bc 405a c8bd d4ce 523d
00000350: 2db1 293e 0f46 633d f0d7 39be bd18 b8be
00000360: 80cd 0cbe d49a 8b3e 530f 53be d053 10bd
00000370: 0f58 40be de64 a23d 6831 a2bc ceb4 d03d
00000380: a498 813e 62c9 613e dd2e ddbe bd3b 153e
00000390: f491 8ebe be82 b8bd 1681 05be f0d3 313e
000003a0: 9850 28bd 60f7 9bbc 8292 dbbe 7539 adbd
000003b0: 8daf cd3d 188a e9bc 985e 99bc c0a0 f3bd
000003c0: a62a dfbd 9ad8 ecbd b41d 203d 76b8 d23d
000003d0: d0b2 443c a817 20bd e044 5bbc 5c33 b6bd
000003e0: 2fc4 1d3f 8b01 0bbe c633 0cbd 46ef 1c3e
000003f0: 8e40 1c3e 1afd 1b3e 6138 363e 5a1b ebbd
-0.040371478 0.012819171 -0.041714564 -0.025390431 0.16942072 -0.31988144 -0.04299563 0.36907363
-0.03669499 0.018083354 -0.1621382 0.2611233 0.07259016 -0.7072627 0.08650549 0.25453928
0.67186975 -0.29018626 0.014517024 0.34700206 -0.11399532 -0.1031144 -0.07808346 -1.2466702
0.4261211 0.64261067 0.6245817 -0.06491427 0.35257432 0.07095046 0.12424679 0.11822632
0.49524635 0.046253607 0.10859559 0.21395026 -0.44550675 -0.021551937 0.27709344 0.50715435
0.05387427 -0.048793137 0.6023636 -0.108860455 0.10309178 0.009103179 0.086449355 0.032434687
-0.022981077 0.06803185 -0.03452012 -0.08116682 0.11410096 -0.07083845 0.003222838 0.011038333
-0.6719173 -0.028615575 -0.6153473 0.019508619 0.09211893 0.28144088 -0.026900709 0.087559775
-0.11217214 -0.06395769 -0.108860135 -0.109818265 -0.7827614 0.12127866 -0.06207244 -0.5130398
0.04548849 0.12620798 0.11727108 -0.34715363 0.10820626 0.13193147 -0.81633663 -0.70187014
-0.47620034 0.09420289 -0.10059805 0.28630215 -0.2253985 -1.5647482 -0.024839753 -0.45998266
-0.28056368 -0.20625411 0.015777694 -0.11419693 -0.35617247 0.0939502 -0.02117455 0.013299495
-0.021138592 0.29429254 0.13296281 0.14731671 0.33787754 -0.030721664 -0.15801948 -0.35927185
0.06941381 -0.10332702 -0.05003978 0.14345549 -0.24338165 0.0052396506 0.021516606 -0.06943175
-0.045985803 0.06469481 -0.07646114 0.0073473006 0.08930279 -0.080565155 -0.033926204 -0.07787849
-0.20280205 -0.29310635 -0.15956688 0.023480427 0.095299274 -0.10072187 0.10399373 0.009064966
-0.10939601 0.047117352 -0.037737966 -0.07475625 -0.4495732 0.0976845 -0.048291788 -0.07063293
0.11000477 -0.33907098 -0.280707 -0.120332696 -0.04431814 -0.20086974 0.06239123 -0.3977429
-0.036854457 -0.20939578 -0.094763264 0.3745245 0.15766917 0.13075794 -1.0253046 -0.24720989
0.09446576 0.25994465 0.25878415 -0.079319134 -0.0024939452 -0.047684237 0.07928659 0.12008551
0.17023174 0.46283066 -0.3652969 -0.39987406 -0.17917685 -0.093649894 -0.8778433 -0.42371643
0.025202855 -0.05305922 0.06421497 -0.15043233 -0.49256507 -0.101187184 0.044365287 0.070534036
-0.05983275 -0.045336172 0.09930983 -0.07801393 -0.0083203465 0.024479643 -0.072825134 0.05370924
-0.10656749 -0.23886408 -0.34766808 0.1786405 -0.05693305 -0.16344368 0.09272547 -0.1934002
0.0987255 0.07250176 -0.0029687583 0.117163375 0.093112364 -0.76596457 0.072712705 0.03823111
0.014787927 0.18275015 -0.13335189 0.081821725 0.05198832 -0.11432149 -0.50140274 -0.05066058
-0.3030591 -0.016441807 -0.09782839 0.051466778 0.16571493 0.055486735 -0.1814878 -0.35956374
-0.13750267 0.27266562 -0.20611314 -0.03523618 -0.18783592 0.07929395 -0.01979895 0.10190736
0.25311768 0.22049478 -0.43199816 0.1457357 -0.27845728 -0.09009312 -0.13037524 0.17366004
-0.041092485 -0.019038856 -0.42885214 -0.08458225 0.10043249 -0.028508231 -0.018721864 -0.11895895
-0.108968064 -0.11564751 0.039090827 0.102890894 0.012005523 -0.03908506 -0.01338312 -0.08896515
0.6162748 -0.13574807 -0.034229062 0.1532565 0.15259 0.1523327 0.17794944 -0.11479826

bias f4 [64]
00000000: 4058 083e aa79 013e 7318 b63d 129f 5a3c
00000010: 4f05 d6bd ab31 093b 4e69 8e3d b635 b93d
00000020: ff07 3bbd b680 fc3d 30a1 213e bd0f f4bd
00000030: 268b 4e3a 5c6c 35bd 8ead 5cbd 6879 ffbc
00000040: cc3a 61be 0892 d4bb 3584 11bc f787 80bd
00000050: ff69 acbd cc09 5fbd 853c c03d 24d3 b6bd
00000060: 0f67 eebd 9fd4 633d ee72 703c d45c 2abc
00000070: 8380 143e 1966 9bbc dfa3 8ebd bf68 84bd
00000080: 0115 68be 4415 5c3d 24e7 0f3e d36d 36bd
00000090: f9b6 933c a502 593e 310a e33d f4d4 a43c
000000a0: 9a93 2f3d 9ac7 193d aadb 8ebd 9dbd 0b3e
000000b0: 61da 363e 4636 b5b9 423c 8bbd 1507 7c3d
000000c0: 6b16 74bd cb98 cbbb e1ee 6abd 1a6b 06bd
000000d0: bef3 9d3c 4f6c 22be 493f 8f3b c85a c6bd
000000e0: 9920 cc3c 8fa2 c4bd 353f bebd acce 0b3e
000000f0: 02fb 383e ef33 243d 917f cc3b 03cf 883c
0.13314915 0.12644067 0.08891382 0.013343589 -0.10450231 0.0020934145 0.06953679 0.09043448
-0.045661923 0.12329237 0.15784144 -0.11917064 0.0007879011 -0.044292793 -0.053876452 -0.03118582
-0.21995085 -0.006487135 -0.008881618 -0.06275933 -0.08418655 -0.054452702 0.09386543 -0.08926991
-0.116407506 0.055622693 0.014675839 -0.0103981085 0.14502148 -0.018969582 -0.0696485 -0.06465291
-0.22664262 0.053731218 0.14053017 -0.04453833 0.018031584 0.21192415 0.11085928 0.020121075
0.042865373 0.03754387 -0.06975491 0.1364655 0.17856742 -0.00034563447 -0.06798603 0.06153019
-0.059591692 -0.0062132827 -0.05735672 -0.032816984 0.019281264 -0.15861629 0.004371558 -0.09685284
0.024917888 -0.09601318 -0.092893995 0.13653058 0.18064502 0.04008859 0.006240793 0.016700273

weight f4 [64, 64]
00000000: 0e7d e4bd 414f 193e c2c1 efbd 967b 18bf
00000010: c95f 6ebe a1a0 1b3e 345d b93e 6d00 e43d
00000020: 28d1 163f 3849 913e ffec 453e a36e ea3d
00000030: 32fc 833e 177f b83d 517b 233c 489b 2ebd
00000040: 29aa 81be 9bb1 29be 8c54 2c3e a930 d13d
00000050: d94a d73d 0381 77be e9fc cc3d 0b56 e6be
00000060: fea9 93bf 4375 0b3e ffc6 06bf 4d72 b33d
00000070: 0e9c 8b3e 91e6 25bf 5aa3 c73d 496b 25be
00000080: 94fa c73e 33ca 54be d396 cf3d 6afc 1dbe
00000090: abf1 f43d 8f9b 9dbe 21c1 cbbe a6cd 99be
000000a0: 6c08 3dbe 6a3a 243e 0a2b 923d 3692 053e
000000b0: 5661 f2bc 22e7 62bf 4c6f 283e 6805 b83d
000000c0: adcf 9dbd ec96 c4bc 76bb 43be 3b99 92b9
000000d0: 73f0 cdbc 20a3 13bd 5826 af3d 5e0a c5be
000000e0: 61b0 753c 4ca5 e4be cf98 82be b8bf 923e
000000f0: 2370 053f dc64 383e 0f9a bd3d 78ba 36be
00000100: 5ccf 8a3d 7e89 20bd 38f0 eabd f81b 853d
00000110: 039a 3fbe 4885 6abd ded4 86bd 82e0 32bd
00000120: 9029 e5bc ed71 f2bb 2a9c 00bd 58d8 1f3c
00000130: d74c 2d3d 4fb5 bdbd 591b 15be 13a6 09bd
00000140: 7d26 afbd 09e1 04be dacf bd3d 009b 073a
00000150: 94ee a2bd fe07 44bd dda9 233d aeaf 9b3d
00000160: ae37 3dbd acc6 28bc c792 acbc a3dd e9bd
00000170: 6a19 c0bc 6a39 3abd aa14 9ebc ff3a 1abc
00000180: f21a e13d 9dbb a93d df35 4e3c 9ca4 7cbd
00000190: 8a1d 5c3d 77b9 86bd 0d9d 7bbd fe13 b53d
000001a0: 5fed 0ebe 02ed 1ebe f5f8 79bd c022 30bc
000001b0: 2b63 853d 28c2 9a3d 78a4 b13d 8aa3 11be
000001c0: 8451 2fbe db65 693d f489 833d ae5b 18bc
000001d0: 1498 44bd 3ab5 f3bb 8d43 d63c 442c f73c
000001e0: 6c78 9ebd f062 0cbd 17cf 003d 9de8 9f3d
000001f0: 8eea e0bd 873e 00be 3e0d cebd 64cb e13d
00000200: e33c 0d3e 55c6 a83e cce2 f4bd 8c75 03bd
00000210: 18c0 e5bd e99f 053e 1423 133e 4eda 2b3d
00000220: d704 3abf 85a3 a4be 3336 8abb 15fa dd3d
00000230: 5807 57be be86 f63d 605f fbbe 2f84 a9bd
00000240: 4750 6fbe 37d9 923e ac42 c73d d8b0 843e
00000250: 6dfe 363e 8eb7 b8bc 89d2 6b3d c0a5 143e
00000260: 15c2 b53d e222 a0bd 39d3 b3bd 53eb 9ebd
00000270: 5037 dbbd 5b0d 963e ddc0 1dbd 10be 9bbd
00000280: 6a63 0c3e ee1b c03d 66a2 dabc b9a4 2b3d
00000290: 23a6 2d3e 6596 cc3d da89 ee3d 4653 f23d
000002a0: abd7 99bc bd4e 3b3d 2df6 a2bd f731 00be
000002b0: 54e1 be3d 14cc 63bd ac42 9c3d 264c 8cbc
000002c0: 794f f53d fb34 ba3d 000a 823e 3dfd 95bc
000002d0: a158 813d 2b38 a3be 7ff3 ab3c 923a 9abc
000002e0: a88b 90be 9128 5fbe 3264 243e 32a6 323e
000002f0: 3029 2e3e bb8c 8cbc 7034 f0bd 7456 82bd
00000300: 7a96 243e ddea 5bbe 6427 8c3d d4ec 5dbd
00000310: b760 25bf b33b 8e3d 19a7 223e aed7 883e
00000320: 7208 05bf 0da7 79bc b90d 8cbd 0133 733e
00000330: 8da2 3fbf 3abe 5e3e 23b3 453d 05c4 92be
00000340: 650d 3dbe bb9b 283d 9825 0e3e c089 233e
00000350: c462 0dbe 8a88 14bd 96f5 9d3e 3f92 aa3e
00000360: b7eb ac3e 7f08 a63e 6c0d 8d3e d752 093e
00000370: fc36 123e 835e a5bd 45b5 02be cf8f 913d
00000380: 2a2a 533f 5bbd 5f3d 8e86 9fbe ec10 823e
00000390: b35e 0f3e 504e cebd c3e1 bf3d 256a 5fbc
000003a0: ad42 92bc 923a dcbc 9ba4 cc3e 8ef0 0d3e
000003b0: b041 edbd ca6b 463e 6135 aabd 6025 3fbe
000003c0: 3b85 c13e e396 903e ef54 ccbd 2ea4 713e
000003d0: c521 a7bf bd1a 993e 78f0 ed3d 548a 793e
000003e0: 7c5f 1fbf 4b27 52be ab8c 84bd 263b 5fbe
000003f0: ff5f 483e 320a 8b3c 0b25 53bd 0c53 313e
-0.11156665 0.14971639 -0.11706878 -0.5956358 -0.23278727 0.15197994 0.3620392 0.11132894
0.589129 0.28376174 0.19328688 0.114468835 0.25778347 0.090086155 0.009978131 -0.042628556
-0.25325134 -0.16571657 0.16829127 0.10214359 0.10512323 -0.24170308 0.10009176 -0.4498752
-1.1536252 0.1361895 -0.52647394 0.087620355 0.27267498 -0.6480494 0.09747954 -0.16154207
0.39058363 -0.20780258 0.10136189 -0.1542832 0.11960157 -0.30782744 -0.39795783 -0.3003971
-0.18460244 0.16037908 0.07137115 0.13044056 -0.029587429 -0.8863393 0.16448706 0.08985406
-0.07705627 -0.023997746 -0.1911448 -0.00027961456 -0.02513907 -0.03604424 0.08552235 -0.38484472
0.014995665 -0.44657362 -0.2550721 0.28661895 0.5212423 0.18007225 0.092579 -0.1784457
0.06777832 -0.039193623 -0.11471599 0.06499475 -0.18711095 -0.057256013 -0.0658357 -0.04367114
-0.02797392 -0.007398835 -0.03139893 0.00975617 0.04230961 -0.092630975 -0.14561214 -0.033605646
-0.08552263 -0.12976469 0.0926816 0.0005172938 -0.079556614 -0.047859184 0.039956916 0.076018676
-0.04619568 -0.010301273 -0.021066083 -0.11419227 -0.023449618 -0.04546491 -0.019296963 -0.00941348
0.109914675 0.082877375 0.012586086 -0.06168042 0.05373911 -0.06578343 -0.061429072 0.08841704
-0.13957737 -0.15520099 -0.06102844 -0.010750473 0.065130554 0.075565636 0.08673948 -0.14222541
-0.1712094 0.056981903 0.06422797 -0.009299202 -0.047996596 -0.0074373754 0.026155258 0.030172475
-0.077378124 -0.03427404 0.031447496 0.07808039 -0.10982238 -0.12523852 -0.100611195 0.11025122
0.13792758 0.32963815 -0.119573206 -0.032094523 -0.112182796 0.13049282 0.1436885 0.04195624
-0.72663635 -0.32156006 -0.004217887 0.10838715 -0.20998895 0.12037419 -0.49096203 -0.08277165
-0.23370467 0.28681347 0.097295135 0.2591617 0.17870493 -0.022548463 0.05757383 0.14516354
0.08874909 -0.07819153 -0.08780522 -0.07759728 -0.107039094 0.29307064 -0.038514007 -0.07604611
0.13709798 0.09380327 -0.026688766 0.04190514 0.16957907 0.09989623 0.11647387 0.118322894
-0.018779596 0.045729388 -0.079571106 -0.1251906 0.09320322 -0.055614546 0.07629904 -0.017126154
0.11978049 0.090921365 0.25398254 -0.01830923 0.06315733 -0.3187879 0.020990131 -0.018826757
-0.2823155 -0.21792819 0.16053846 0.17446211 0.170079 -0.01715695 -0.11728752 -0.06364146
0.16073027 -0.21476312 0.06843451 -0.054180935 -0.646007 0.069449805 0.15884055 0.2672705
-0.5196601 -0.015237582 -0.06838555 0.23749925 -0.7485741 0.21752253 0.04826654 -0.28665176
-0.18462141 0.04116414 0.13881528 0.15970516 -0.13807207 -0.036263026 0.3085143 0.33314702
0.33773586 0.32428357 0.27549303 0.13410507 0.14278787 -0.08074667 -0.12764461 0.071075074
0.8248621 0.054623943 -0.31157345 0.25403535 0.14000969 -0.10073531 0.093692325 -0.013636147
-0.01785406 -0.026883397 0.39969334 0.13861296 -0.115847945 0.19377056 -0.083109625 -0.18666601
0.3779696 0.28240117 -0.09977137 0.23597786 -1.3057181 0.29903212 0.116181314 0.24369174
-0.6225507 -0.20522802 -0.06472143 -0.21799907 0.1956787 0.016972635 -0.051549 0.17316836

bias f4 [64]
00000000: 280c 0d3e afb6 e6bd 7f8e 8c3d 8a91 46bd
00000010: 4114 e03d 9399 6d3e 022b 3cbe 2cfc 113b
00000020: c8ad 563d 027b 2dbe 0d8f f73b 115b 4e3e
00000030: 7eca 6c3e 4fd7 673e 99e4 b33d fee1 103d
00000040: 6a7e 95bd b7a9 213e 53f5 68bd 1c0a d8bd
00000050: f410 f0bc 92e4 033d 500d 35be 83b1 e4bd
00000060: ce75 033d 3aaa 47bd 14f3 31bd 4e0d e73d
00000070: fe61 bbbc e99b 4f3d 3d4a 0fbe ea26 2b3e
00000080: 51e0 293e 4644 cbbd f9cc 613e cbc0 fabd
00000090: 9996 323e 3fdf 28bd 4063 28be 6ee0 83bd
000000a0: ce4b 793c 7c34 553e 547f 0fbe 1f34 173e
000000b0: 63dd 023e b1ac 96bd 8830 a93d 8b95 1cbe
000000c0: 9852 483d 209c 20be bad8 afbb 65d3 9f3c
000000d0: b6a2 8abd 0da5 acbd e6a7 0f3e 177c 96bd
000000e0: 91bc eabd f0a5 8f3d 87ac 8dbc a73d e6bc
000000f0: 0ee3 403e 3c0c cd3d 22ff cabd f82d ef3c
0.13774168 -0.11265313 0.068631165 -0.04847864 0.10941363 0.23203115 -0.18375781 0.002227555
0.052411824 -0.16941455 0.007554895 0.20151927 0.2312412 0.22640727 0.08783836 0.035371773
-0.07299502 0.15787397 -0.056874584 -0.10548803 -0.029304959 0.032200404 -0.1768086 -0.1116667
0.03209477 -0.048746325 -0.043444708 0.112818345 -0.022873875 0.050685797 -0.13993163 0.16714063
0.16589476 -0.099251315 0.22050847 -0.122438036 0.17440261 -0.04122853 -0.16444111 -0.06439291
0.015215827 0.20820802 -0.14013416 0.14765976 0.12779765 -0.07357157 0.0826121 -0.15291421
0.048906893 -0.15684557 -0.005366412 0.01950998 -0.06769316 -0.084299184 0.14028892 -0.07347887
-0.114617474 0.07014072 -0.017294182 -0.02810557 0.18836614 0.10012099 -0.09911944 0.029196724

weight f4 [64, 64]
00000000: 2867 ff3e 37db 28bd b49b 86ba dc65 47bc
00000010: 6b56 e83e cb55 99bd 3c4d a6bd 606c af3e
00000020: 27d3 3c3e 0259 7b3b 7f32 2abe a979 f83d
00000030: add5 1c3e 3c94 27bd 198c ce3d 6e36 66be
00000040: f61f 21be d25a 633e b8bf e93d 56af 733e
00000050: aaae c33d 486c 373e 36ce a5bd 026a 853d
00000060: b229 d8bc 7b21 ac3c bdac bf3e 2d68 6d3e
00000070: 6fb6 f53d f8d7 d03d 1556 e83d 1ad0 c33e
00000080: 54b9 763d f0e2 163e cd87 e63d 1b87 00be
00000090: c548 e43e 3551 013e f578 54bd 01ea d9bc
000000a0: 2197 1c3f a082 273f f621 debd 7a5b 5dbd
000000b0: ccb7 b2be d68a a73e c168 23bf 8159 40bd
000000c0: 2c58 1e3e 9921 04be a6fa 28bd f1e6 703e
000000d0: aa87 0e3d c442 90bd 52c0 b5be d065 1cbd
000000e0: aeab 8db7 fe39 c23e 3314 07bf b930 ef3c
000000f0: 0ef8 bc3e ae6f bf3c 24a3 e03d 5cd3 f2bd
00000100: 481c afbc 9804 11bd 6059 b7bb eaaa f43d
00000110: a80a ac3c 0ca4 073d 50d2 5dbd e4b6 91bd
00000120: 846d 51bd d8f0 81bc 20d5 e9bc 7086 d03c
00000130: 4c0d e9bd 7ce5 cfbd 1cdb 483d a2f0 ddbd
00000140: 50b5 dfbd d839 533d fcf5 adbd e0af 7ebc
00000150: c05b 8cbc 2c94 373d 4097 963c c82d e1bd
00000160: 7274 9fbd 865e dcbd 4c34 813d c66e a8bd
00000170: 5023 723d 32ec a3bd b26d babd 7452 0abd
00000180: 4a15 e4bd c0dd 103b 703c 38bc 98e1 9f3c
00000190: 7836 393d c885 a5bd e47e d33d 006c 7f3a
000001a0: 5001 6abd 04df 283d fa04 f73d caa2 af3d
000001b0: b875 4f3d 3ebc eabd 60e6 273d ac91 5cbd
000001c0: 1c4c 493d 68a6 d1bc 8c5f 6abd 7cf4 8bbd
000001d0: 9c95 0fbd 0484 9ebd b8c5 003d 16fa f13d
000001e0: 527c c6bd 7090 573d c001 eabd 52e9 c53d
000001f0: 0005 0e3a 0cda 0cbd 00ce a33c 7022 35bc
00000200: ffe3 21bc 00d1 00bc f675 83bd aaf0 03ba
00000210: 2ca0 b13d 3c7d 04bd 4647 87bd 6d71 9d3c
00000220: 6069 b7bd 7419 82bd 794b 913c f072 8fbd
00000230: d232 e6bd a03e 49bd b891 82bd 9c49 3d3d
00000240: 87fa e13c e049 79bd 75a8 16be 887d 7cbd
00000250: e0cf e4bd 8e7c 923d 9055 20bd fa8a e4bd
00000260: e6b2 d43d 18a5 b5bd 2c82 4d3d 8377 b33d
00000270: 876f 59bb c071 5cbb 83b9 a5bd b25b 90bd
00000280: e0c6 cbbc f5bd 083d f60e 31bc 1cdb eb3d
00000290: 80b7 a6bd 386a 4bbd 0aa0 fcbd 8c03 06bd
000002a0: 0423 e1bd 9072 00bd 64b6 d4bd 4e79 aa3d
000002b0: b6a5 c83d 56ce 8b3d 505c db3c f896 253d
000002c0: b448 c6bd c601 aa3d a4c8 01be 2dff b03d
000002d0: 3af7 a2bd 9148 aa3d 80db e6ba 8082 943d
000002e0: f0f4 d3bc 1a5f dcbd 8e51 a2bd 5a33 14be
000002f0: e0fe 71bd 7c64 87bc 1e9c 6e3c c000 81bd
00000300: 1067 a23e 32da c93c 691c 823d 8a74 3dbe
00000310: 17fb c13e 603e 313e ffc9 2fbd 1194 883e
00000320: 7ff2 5f3e 5df3 103d 8312 f8bd 0873 8b3e
00000330: 47a5 903e 5ca0 713e 8eb3 0a3e b34a 76be
00000340: e926 3ebe 9b2c 433e bcd5 92bd 86d5 133e
00000350: 026a b73d cbcc 71bc 9fd2 003e 17fe 91bd
00000360: 34d0 453e 54fd 7d3e c9bb 2d3e 400b 843e
00000370: 4bed 7a3e 54c7 fc3d af6a 353e 53b4 a43d
00000380: 7520 b83d cad2 0a3e cfd9 e83d 3626 ba3d
00000390: 4874 003f 1a3c 3a3e 04e2 e93d ab00 5e3e
000003a0: 77bf 1d3f 6658 093f e8d1 85bd 1424 393e
000003b0: 69fb 85be 850f 893e 2d2d a1bd 4a33 b33c
000003c0: b9fb 303e e9c3 c93d 64f2 013d 2fdd 90bd
000003d0: 2b69 2b3b 8541 03be 8ade 993e f1a0 a23d
000003e0: 1865 a1bd fae5 7f3e 606c e7be 576a 8bbc
000003f0: 7779 523e 723b fd3c dd58 94bd 3a1e 62be
0.4988339 -0.041224685 -0.0010269792 -0.012170281 0.45378432 -0.07487067 -0.081202 0.3426237
0.18439923 0.0038352613 -0.16620825 0.1213258 0.15315886 -0.04091285 0.10085315 -0.22481701
-0.15734848 0.22202614 0.114135206 0.23797354 0.09554799 0.179124 -0.08095972 0.0651436
-0.02638707 0.021012058 0.37436476 0.23184271 0.11997687 0.10197443 0.11344544 0.38244706
0.060235336 0.14735007 0.11256371 -0.12551539 0.4458677 0.12628634 -0.051873166 -0.02660084
0.61168104 0.6543369 -0.10846321 -0.054042317 -0.3490585 0.3272311 -0.63831717 -0.046960358
0.15463322 -0.12903441 -0.041254662 0.23525597 0.034797348 -0.070439845 -0.3549829 -0.038183033
-1.6888454e-05 0.3793487 -0.52765197 0.029198037 0.36908 0.023368683 0.109686166 -0.1185672
-0.02137579 -0.03540477 -0.005595371 0.11946662 0.021001175 0.03311543 -0.054155648 -0.07114962
-0.051129833 -0.015861914 -0.028544009 0.02545473 -0.11379489 -0.101511925 0.049037084 -0.10836913
-0.109232545 0.051568836 -0.084941834 -0.015544862 -0.017133594 0.044819042 0.018382668 -0.1099506
-0.07785882 -0.107602164 0.06308803 -0.08224253 0.059115708 -0.08004035 -0.09102954 -0.03377004
-0.11136873 0.002210483 -0.011244878 0.019516751 0.04521796 -0.080821574 0.10326937 0.0009743571
-0.057130158 0.04122831 0.12061496 0.085759714 0.050649375 -0.114616856 0.040991187 -0.05384986
0.04914485 -0.025592044 -0.057220027 -0.06833741 -0.035054788 -0.07740024 0.03143856 0.11815278
-0.09691681 0.05262798 -0.11426115 0.09663643 0.0005417615 -0.034387633 0.01999569 -0.011055574
-0.009881019 -0.0078623295 -0.06418984 -0.0005033115 0.086731285 -0.032345995 -0.06605391 0.019219125
-0.089556456 -0.06352511 0.017736183 -0.070043445 -0.11240162 -0.04913199 -0.0637545 0.046212777
0.027585281 -0.06086147 -0.14712699 -0.061643153 -0.111724615 0.07152663 -0.0391441 -0.1115932
0.10385685 -0.0886938 0.05017297 0.087630294 -0.0033178048 -0.0033637136 -0.08092024 -0.070487395
-0.024875104 0.033384282 -0.01080679 0.11516401 -0.081404686 -0.049661845 -0.123352125 -0.032718226
-0.10993007 -0.031359255 -0.10386351 0.08323918 0.09797232 0.06826465 0.026777416 0.04042718
-0.09681836 0.083011195 -0.12674195 0.08642421 -0.07957311 0.08314622 -0.0017613024 0.072514534
-0.025873631 -0.10760327 -0.079257116 -0.14472714 -0.05908096 -0.016527407 0.014563588 -0.06298971
0.31719255 0.024640176 0.06353075 -0.18501487 0.3788688 0.1730895 -0.042917248 0.26675466
0.21869849 0.03538834 -0.12112906 0.272362 0.28251097 0.23596328 0.13545057 -0.24051933
-0.1856953 0.19059984 -0.07169673 0.14436921 0.08955766 -0.014758299 0.12580346 -0.07128542
0.19317704 0.24803668 0.16966166 0.25789833 0.24504583 0.12342706 0.17716478 0.080422066
0.08990566 0.13556972 0.11369669 0.090893194 0.5017743 0.1818699 0.11420062 0.21679942
0.6162028 0.5365051 -0.06534177 0.18080169 -0.26168373 0.26769653 -0.07869945 0.021875042
0.17283525 0.0985182 0.031725302 -0.070734374 0.0026155214 -0.12817962 0.30052596 0.079408534
-0.0788061 0.24990073 -0.4519987 -0.01701848 0.20554148 0.030912135 -0.07243512 -0.22081843

bias f4 [64]
00000000: 7b24 bcbd 4e1c f3bd 302c e2bd ce8f 58bd
00000010: 2a68 e9bd 8d00 653e ab29 e43d 82d5 04b8
00000020: 4de6 14be 0749 c0bd 0f70 363e a93e 973c
00000030: 3728 6b3e 7eb7 02be 4f9d 26bd 4019 9fbe
00000040: e69b 03be f4a8 133d 3099 0d3c 9b55 97bd
00000050: 8212 1b3e a657 983c d177 08be 29f1 c5bd
00000060: 7b1a 2abd 4e07 383e ef31 c5ba d502 bdbc
00000070: 49cd 1bbe a100 0c3c bf06 983c 0e9a da3d
00000080: 5914 7b3e 7da0 4ebe 14d3 dabd fa95 dcbd
00000090: d469 613d baf8 1b3c cf7f aabd c3c1 4d3e
000000a0: e363 01be 191a 4a3e 9949 463e 7153 42bd
000000b0: 7e29 383e f9cc 10bd d007 803e 9323 743e
000000c0: 1916 5ebd ad35 07bc 4a0e 693d 8cba 8a3e
000000d0: 490b 0a3d 0623 bebd ec08 2ebe 7c9b 343e
000000e0: 7544 79be d677 8f3e 04af c43c 9dfd 0b3e
000000f0: b62f e5bc ab7e 7f3e aaaa e8bd 5ae7 943c
-0.091866456 -0.11870633 -0.11043584 -0.052871518 -0.11396821 0.22363491 0.1114076 -3.1670097e-05
-0.14540978 -0.09388929 0.17816184 0.018462496 0.2296456 -0.12765309 -0.040677365 -0.31073952
-0.1285244 0.036049798 0.00864248 -0.07389375 0.15143779 0.018596482 -0.13326956 -0.09665138
-0.04152916 0.17971537 -0.0015044789 -0.02307264 -0.15215029 0.008545072 0.018557904 0.10673915
0.24519481 -0.20178409 -0.10684791 -0.10770793 0.055032566 0.00951975 -0.08325159 0.20093445
-0.1263576 0.19736518 0.19364013 -0.047442857 0.17984578 -0.035351727 0.2500596 0.23841695
-0.054220293 -0.008252543 0.056898393 0.2709545 0.03370217 -0.09284024 -0.16995591 0.17637438
-0.2434252 0.28021115 0.024009235 0.13670965 -0.027976852 0.24950664 -0.113606766 0.018176723

weight f4 [1, 64]
00000000: 59b4 8cbe 2459 2dbd 3bfc 6bbd 1ae8 fbbd
00000010: 384d 9bb9 76d3 223e 3aae 773f a566 f6bc
00000020: b651 23bc fec1 2e3d d74a c63d 089c bbbd
00000030: ddd3 a83f 3130 8bbc 2e91 d4bd f8d1 a5bf
00000040: 6d9c 143f 4660 ccbd e28d debd cb69 2fbe
00000050: c971 d43e c328 53bc 4282 bbbd 447c 47bc
00000060: 00e0 d7bd 20a3 5a3b 840f a7bd 2b31 c6be
00000070: a404 26bd 5e5d 9abd 32b5 e1bd ba0f 6d3e
00000080: b8b5 1a3e 6cb2 b2be df9d b03b 1390 f6bb
00000090: 19fb e4bd 715d 8dbd f8a3 853d 9e6b 443f
000000a0: 7d4b 6d3c 2fcc 433d 4711 a63e fef8 1bbc
000000b0: c23d bf3d 9e67 1fbe 1645 513e 2b2f 283e
000000c0: 7cfe e8bd c600 c4bd 8211 babd 1d7a 8e3e
000000d0: 8ada 83bd 772b 4ebd 6ace 8b3d e571 703f
000000e0: b1cd 0dbf 8d5c 803e 6cb3 23be 5585 d13f
000000f0: 9b59 acbd ff0d fb3c b1b6 b83c b510 e0bd
-0.27481344 -0.04232134 -0.057613593 -0.12300129 -0.00029621436 0.15900978 0.96750224 -0.030078242
-0.009968212 0.042665474 0.09682243 -0.0916062 1.3189656 -0.016990753 -0.10379253 -1.2954702
0.58051187 -0.099793 -0.10866906 -0.171302 0.4149306 -0.012888136 -0.09155704 -0.012175623
-0.105407715 0.003336139 -0.08157256 -0.38709387 -0.04053177 -0.0753734 -0.110208884 0.2315053
0.15108383 -0.3490175 0.0053899135 -0.007524499 -0.111807056 -0.06902588 0.06525415 0.7672671
0.01448333 0.047802147 0.32435057 -0.009519814 0.09337951 -0.1556687 0.2043651 0.16424243
-0.11376664 -0.0957046 -0.090853706 0.2782754 -0.064381674 -0.05033442 0.0682648 0.9392379
-0.55391985 0.2507061 -0.15986413 1.6368815 -0.084155284 0.030646322 0.022548052 -0.109406866
