Project2/models/model.pt (torch, 139464 bytes, 11 tensors)

weight f4 [64, 256]
0	0xbb74c0f5	-0.0037346457
1	0xbd9fc201	-0.07800675
2	0x3c0a5952	0.008444147
3	0x3d4b47a1	0.049628858
4	0x3c10ce67	0.008838273
5	0x3daadb3b	0.08342596
6	0x3d45ae06	0.048261665
7	0xbc53ee3b	-0.012935217
8	0xbd517908	-0.051140815
9	0xbd324e17	-0.043531504
10	0x3d6eec78	0.058330983
11	0x3d055799	0.032554243
12	0xbd04be0e	-0.032407813
13	0xbc08b90d	-0.008344901
14	0xbd2d4938	-0.042306155
15	0xbca52a9c	-0.02016192
16	0xbd8c7e45	-0.068600215
17	0x3d5c1c94	0.05373819
18	0xbc707d56	-0.01467832
19	0x3d2cd11d	0.042191613
20	0x3cc67dce	0.02422991
21	0x3d2a5d60	0.041592956
22	0xbd83aba9	-0.06429226
23	0xbdcab7f7	-0.0989837
24	0xbc7dd634	-0.015492965
25	0x3cc72b46	0.024312627
26	0x3c76e4be	0.015069185
27	0x3c9bc672	0.019015525
28	0x3d852ec4	0.065030605
29	0x3c9c6998	0.01909332
30	0xbd186085	-0.037201423
31	0x3c310b80	0.0108059645
32	0xbbb6599f	-0.005564883
33	0xbd6724dc	-0.056431636
34	0x3d4b2868	0.04959908
35	0x3d011257	0.03151163
36	0xbd8c4d63	-0.06850698
37	0x3d29a450	0.041416466
38	0xbbe39f65	-0.0069464915
39	0x3c42bea3	0.011886272
40	0x3c56e98d	0.013117206
41	0x3d43b0dd	0.04777609
42	0xbd2eba39	-0.042658065
43	0xbce3fea2	-0.02783138
44	0xbcc8cc1f	-0.024511395
45	0xbd2c16e9	-0.042014036
46	0x3d19754d	0.037465382
47	0xbc3b802e	-0.011444135
48	0xbbf3aa1c	-0.00743605
49	0xbd84c1c0	-0.064822674
50	0x3d65ca39	0.056101058
51	0xbdd2682d	-0.10273776
52	0x3d1d5863	0.03841437
53	0xbd17ab84	-0.037028804
54	0x38233490	3.891118e-05
55	0xbd56b49d	-0.05241834
56	0x3c361fcc	0.011115979
57	0x3cabb984	0.020962484
58	0xbd9baa24	-0.07600811
59	0xbd89b7e8	-0.067245305
60	0x3c394d65	0.011309956
61	0xbcb4e81f	-0.02208334
62	0x3d95d89b	0.07316705
63	0x3cd6aa4a	0.026204247
64	0x3d208805	0.03919222
65	0x3d95d236	0.07315485
66	0x3d278e10	0.040906966
67	0xbd988eed	-0.07449136
68	0x3d3829a8	0.0449616
69	0xbcb5f6d8	-0.02221243
70	0xbd36a703	-0.04459287
71	0xbd1b907a	-0.03797958
72	0xbdbe4888	-0.09291178
73	0x3d663394	0.056201532
74	0x3b82d55a	0.0039927186
75	0xbd2d765f	-0.042349216
76	0x3c4ad5f3	0.012380111
77	0xbbb0dd2a	-0.0053974586
78	0xbd0b789b	-0.034050565
79	0x3d8212bf	0.06351232
80	0x3cd4c709	0.025973814
81	0x3bd2fcc8	0.0064388253
82	0x3d6bb708	0.0575476
83	0xbd98f058	-0.07467717
84	0x3c4a9bcb	0.0123662455
85	0x3ccc44e9	0.024935203
86	0xbcf8367a	-0.030299414
87	0xbd2255ff	-0.039632794
88	0x3d94d9f6	0.07268135
89	0xbd2696d5	-0.04067119
90	0x3c0687cd	0.008211088
91	0xbdb892bc	-0.09012362
92	0x3c4657e4	0.012105916
93	0x3c8d4174	0.017243125
94	0xbce4cc05	-0.027929315
95	0x3ccd5411	0.0250645
96	0x3d820246	0.0634809
97	0x3c56c8ed	0.013109428
98	0xbd5bea22	-0.053690083
99	0x3d3526b6	0.04422637
100	0x3d46043a	0.048343875
101	0x3c067fa4	0.008209143
102	0x3d104484	0.03522159
103	0xbce34a68	-0.02774544
104	0x3d4c6402	0.049900062
105	0x3ca42c0a	0.02004053
106	0xbdd407cd	-0.103530504
107	0xbceba894	-0.028766908
108	0xbd83d383	-0.06436827
109	0x3d4f06bb	0.050543528
110	0xbcec9f46	-0.028884541
111	0x3c82712f	0.01592311
112	0x3c47643d	0.012169895
113	0xbcd1c1e2	-0.025605146
114	0x3ca335fc	0.019923203
115	0x3cbf1a68	0.023328021
116	0x3d26d56f	0.04073089
117	0x3dc0db22	0.09416796
118	0xbcf27c46	-0.029600274
119	0xbd90cd2f	-0.07070386
120	0x3d6b66fa	0.057471253
121	0xbc87e51b	-0.016588738
122	0xbd807685	-0.06272606
123	0xbd21fd6e	-0.03954833
124	0x3cf7ed8d	0.03026464
125	0xbd957588	-0.07297808
126	0xbcc8a74a	-0.024493832
127	0x3cbe95c3	0.023264771
128	0xbd26f210	-0.040758193
129	0x3bedc577	0.0072562057
130	0xbd01ad13	-0.031659197
131	0xbce50751	-0.02795759
132	0xbcf3d811	-0.029766114
133	0xbd73bbc4	-0.05950524
134	0x3d155103	0.036454212
135	0x3ca07e9b	0.01959162
136	0xbc396019	-0.011314415
137	0xbd8908ae	-0.06691109
138	0x3af1b327	0.0018440232
139	0x3d757678	0.059927434
140	0xbd0c7165	-0.03428783
141	0xb91ef590	-0.00015159533
142	0xbd5ca5f5	-0.053869206
143	0xbcad5020	-0.02115637
144	0x3cc47333	0.023980713
145	0xbc2688e4	-0.010164473
146	0xbcfea8e8	-0.0310864
147	0x3c16b219	0.009197735
148	0x3c2042a2	0.0097815115
149	0x3d73e2ba	0.059542395
150	0x3cd2aa5c	0.025716
151	0xbd35391f	-0.044243928
152	0xbb8eabeb	-0.0043539903
153	0x3d07194d	0.032983113
154	0xbc9d40dd	-0.019195968
155	0xbc563356	-0.013073763
156	0x3c51b60c	0.012799751
157	0x3d74b812	0.059745856
158	0x3b8ea953	0.004353681
159	0x3afe2cbd	0.0019391995
160	0x3d45d5f1	0.048299734
161	0x3c980349	0.018556254
162	0xbd381df7	-0.04495045
163	0xbd6221f9	-0.05520818
164	0x3cc99fc8	0.024612322
165	0xba2a2e37	-0.0006491872
166	0xbcc998b3	-0.024608945
167	0x3d1ed1c3	0.038774263
168	0x3d4108d1	0.04712755
169	0xbbf9938e	-0.007616467
170	0xbc78cf6d	-0.015186173
171	0x3c25f43d	0.010129032
172	0xbc411644	-0.011785094
173	0xbcd39bcb	-0.025831124
174	0x3cfbec53	0.030752337
175	0x3ccadbaf	0.024762956
176	0x3d276964	0.040871993
177	0x3d1f4884	0.038887516
178	0x3c240a15	0.010012169
179	0x3d3b9852	0.04579956
180	0x3d198e2a	0.037489094
181	0x3c9530b0	0.018211693
182	0x3d10c0bb	0.035340052
183	0xbcaa3eda	-0.020781923
184	0xbd22a3e4	-0.03970708
185	0x3d7db69a	0.06194172
186	0xbd1fb91e	-0.0389949
187	0xbd030a74	-0.03199239
188	0x3d255f6c	0.040374205
189	0xbc84f399	-0.016229438
190	0x3c696e64	0.014247511
191	0xbd6632a4	-0.05620064
192	0x3d5ccfff	0.053909298
193	0xbd564144	-0.052308336
194	0xbc21b818	-0.0098705515
195	0x3d87e6e2	0.06635834
196	0x3cc5c4f1	0.02414176
197	0xbd562098	-0.052277178
198	0xbd57260a	-0.05252651
199	0x3d6cff21	0.057860497
200	0x3ddb7d84	0.107172996
201	0xbd98c409	-0.07459266
202	0xbc8fac97	-0.017538352
203	0xbb91ab4c	-0.004445469
204	0xbcfb20da	-0.030655313
205	0x3d82208b	0.06353863
206	0x3d5c6743	0.053809416
207	0x3c235efd	0.009971377
208	0xbd7bec4d	-0.06150465
209	0xbc5d5bd6	-0.013510665
210	0x3d54f46e	0.05199092
211	0xbd26bec9	-0.04070929
212	0x3cae4e31	0.021277519
213	0xbd044852	-0.032295533
214	0xbca25327	-0.01981504
215	0x3d0ee787	0.03488877
216	0xbd2048c2	-0.039131887
217	0x3cf2aafb	0.029622545
218	0x3d28d3bc	0.04121755
219	0xbcf56df5	-0.029959658
220	0xbd6918b9	-0.056908343
221	0x3d228783	0.039680015
222	0x3da747bf	0.08167981
223	0x3d5e7153	0.054307293
224	0x3c8f1d10	0.017469913
225	0xbcba5d87	-0.022749675
226	0xbd7fd187	-0.06245568
227	0x3d05a6b5	0.032629687
228	0x3cb7dcb8	0.022444114
229	0xbd8c6f19	-0.06857128
230	0x3d469be5	0.048488516
231	0xba3b8c27	-0.0007154368
232	0x3d00ec28	0.031475216
233	0xbd8337ea	-0.06407149
234	0xbd4b20e4	-0.049591914
235	0x3a6c563c	0.00090155355
236	0x3d38cc7e	0.045116894
237	0xbd9b84a6	-0.0759366
238	0x3d1b620f	0.037935313
239	0xbc8ebfd1	-0.01742545
240	0x3d0457e0	0.032310367
241	0xbd41553f	-0.047200438
242	0x3d74c883	0.059761535
243	0x3bd2b864	0.0064306725
244	0xbd80ddfb	-0.062923394
245	0xbc7b6501	-0.015343905
246	0xbd499ef5	-0.04922386
247	0x3ab37355	0.0013690988
248	0xbd26d49c	-0.040730104
249	0x3dd2c845	0.10292105
250	0xbd921203	-0.07132342
251	0xbcb7e345	-0.022447238
252	0x3b6c1e23	0.0036028705
253	0xbc4cca3f	-0.012499391
254	0xbd0601af	-0.03271645
255	0x3cd0fa8a	0.025510091

bias f4 [64]
0	0x3c4fa652	0.012673931
1	0x3bdf58e2	0.0068160156
2	0xbd105029	-0.035232697
3	0x3d2c2c27	0.042034294
4	0xbceca097	-0.028885169
5	0x3d30851c	0.043095693
6	0x3d843844	0.06456044
7	0x3cf451a8	0.029824093
8	0x3ca17563	0.019709295
9	0x3cff245e	0.03114527
10	0x3d0a2153	0.033723187
11	0x3c04a35d	0.0080955895
12	0xbc0f8e4f	-0.008761956
13	0x3d288bfc	0.041149125
14	0xbc35e6f3	-0.011102426
15	0xbc906625	-0.017626831
16	0xbb9003d5	-0.004394988
17	0xbc3333a4	-0.010937605
18	0x3d9ed831	0.07756079
19	0x3cbf9371	0.023385735
20	0xbc16e175	-0.009209027
21	0xbd2f0816	-0.04273232
22	0x3d46a6d3	0.04849894
23	0x3ccf88d4	0.0253338
24	0xbc9d1ab6	-0.019177776
25	0x3c4925f1	0.012277112
26	0xbccf878e	-0.025333192
27	0xbc00a7f3	-0.007852542
28	0x3d718e2c	0.058973476
29	0x3ab3f465	0.0013729451
30	0xbd13efa5	-0.036117215
31	0x3d288c3f	0.041149374
32	0x3c1766a5	0.009240781
33	0x3d863387	0.06552797
34	0xbcbd941a	-0.02314191
35	0xbd255e8e	-0.040373378
36	0xbd0f6d5d	-0.035016406
37	0x3d84d31e	0.0648558
38	0x3cc9a74d	0.024615908
39	0x3d0dab37	0.03458711
40	0x3cd27a84	0.025693186
41	0x3c5a7081	0.013332487
42	0xbd30324c	-0.043016717
43	0xbbe65612	-0.0070293033
44	0x3c91e1ba	0.01780783
45	0x3d36e7d6	0.04465469
46	0x3d889181	0.06668378
47	0x3d743184	0.059617534
48	0xbd359ce7	-0.044339087
49	0x3bec3cad	0.0072093816
50	0xbc10c659	-0.008836352
51	0xbbdba060	-0.006702468
52	0xbccd0663	-0.02502746
53	0xbbbdbda9	-0.0057904315
54	0xbbcc51ef	-0.006235353
55	0x3d1edeff	0.038786884
56	0x3d82f698	0.0639469
57	0x3d1fafcc	0.038986012
58	0x3d7b1862	0.06130255
59	0xbcbee602	-0.023303036
60	0x3d480d08	0.048840553
61	0xbcd94845	-0.026523719
62	0x3d6c163e	0.0576384
63	0x3ce99e08	0.028517738

weight f4 [64, 64]
0	0x3d377e65	0.044798274
1	0x3da8c44b	0.08240565
2	0xbe85ee60	-0.26158428
3	0x3d83a610	0.06428158
4	0xbd25e0e2	-0.040497668
5	0x3d15bf62	0.03655947
6	0xbd1539a2	-0.036431916
7	0x3d8ac506	0.067758605
8	0x3d2f1781	0.042747024
9	0x3c86f220	0.016472876
10	0x3d837fda	0.0642087
11	0xbe13852b	-0.14406268
12	0x3db9bda4	0.09069374
13	0x3cddec08	0.027090088
14	0x3e092e62	0.133966
15	0xbdbc71c4	-0.092013866
16	0x3d9a4658	0.07532948
17	0xbd2f5380	-0.04280424
18	0x3e1a5d16	0.15074572
19	0x3e461da8	0.1934725
20	0x3db9f368	0.09079629
21	0x3dd16e87	0.102261595
22	0x3c9cc005	0.01913453
23	0xbe39d50b	-0.18147676
24	0xbd91a9a2	-0.07112433
25	0xbd9663f0	-0.0734328
26	0x3d500a27	0.050790932
27	0xbb62fea9	-0.0034636653
28	0x3c97c175	0.018524865
29	0xbdd4c985	-0.10389999
30	0xbe36a73e	-0.17837235
31	0xbe45006e	-0.19238445
32	0x3c2b19f9	0.010443204
33	0x3dd08389	0.10181338
34	0xbd94bce4	-0.072625905
35	0x3cbd5958	0.023113891
36	0xbda5e9e4	-0.08101252
37	0x3c34acda	0.011027539
38	0xbd903491	-0.07041276
39	0x3d72089f	0.059090253
40	0x3d9c6fc0	0.07638502
41	0x3daa17b5	0.08305303
42	0xbdc6ddc3	-0.097102664
43	0xbccea4cf	-0.025225071
44	0x3c731cdc	0.014838424
45	0xbd65adf9	-0.056074116
46	0xbe0259d4	-0.12729579
47	0xbde25350	-0.11051047
48	0x3db800b4	0.08984509
49	0x3bacbcff	0.0052715535
50	0x3d084ae8	0.03327456
51	0xbe064e0a	-0.13115707
52	0xbe06bfd7	-0.13159119
53	0xbaa9c9a0	-0.0012953766
54	0x3d0b149a	0.033955194
55	0x3d30a6d6	0.043127857
56	0xbd49132e	-0.049090557
57	0x3cfcd260	0.030862033
58	0x3e056136	0.13025364
59	0xbd8ceba8	-0.06880885
60	0x3df68373	0.12036791
61	0x3da74e36	0.081692144
62	0xbd4569b7	-0.04819652
63	0xbdc18c10	-0.09450543
64	0x3ccf2f9c	0.025291257
65	0xbd292a29	-0.041299973
66	0xbd8ef01c	-0.06979391
67	0x3d29de83	0.04147197
68	0xbdc18511	-0.094492085
69	0xbd8abe28	-0.06774551
70	0xbcb0ce2c	-0.021582685
71	0x3e0ae7e5	0.13565023
72	0x3e64c89a	0.22342148
73	0xbdf7ce8a	-0.12099941
74	0x3d8961c1	0.06708098
75	0x3c0b2006	0.008491522
76	0x3d3341be	0.04376387
77	0xbe1b97e5	-0.15194662
78	0x3e29c473	0.16578846
79	0xbd57c41e	-0.052677266
80	0xbd20e928	-0.039284855
81	0xbdb9d3ee	-0.090736255
82	0x3e2b96e5	0.1675678
83	0x3e0e0337	0.13868414
84	0x3e0a617c	0.1351375
85	0x3d74e941	0.05979276
86	0xbd532402	-0.05154801
87	0xbc74aeae	-0.014934225
88	0x3d6a8abe	0.05726122
89	0xbe181130	-0.14850307
90	0x3c1eaffb	0.009685512
91	0xbe242992	-0.16031483
92	0x3c9a72e1	0.018853607
93	0xbd3b73f4	-0.04576488
94	0xbe93835b	-0.28811154
95	0xbe08147a	-0.13289061
96	0xbc2bc04a	-0.010482857
97	0x3d77a403	0.06045915
98	0x3db23e67	0.087033086
99	0xbdccfd86	-0.10009293
100	0xbe404fcb	-0.18780439
101	0xbd718b5f	-0.058970805
102	0x3bb9d90e	0.005671627
103	0x3e12f252	0.1435025
104	0x3dc697c0	0.09696913
105	0xbce9e6af	-0.028552381
106	0x3cdfb1fb	0.027306547
107	0xbe13bfd1	-0.14428641
108	0x3cc6287e	0.02418923
109	0xbe170321	-0.14747287
110	0xbd808e5e	-0.062771544
111	0xbd817467	-0.0632103
112	0x3d7e43a4	0.062076226
113	0x3de4d3c2	0.11173202
114	0x3e003abf	0.1252241
115	0x3d0d0439	0.034427855
116	0xbdabdae2	-0.08391358
117	0xbd78f7a0	-0.06078303
118	0xbe0246b7	-0.12722288
119	0x3e1d9efd	0.1539268
120	0xbd7a558f	-0.06111675
121	0xbc203862	-0.009779068
122	0x3e03a2c5	0.1285506
123	0x3d9e5e16	0.07732789
124	0xbd2ffd7e	-0.04296636
125	0x3d46cf2f	0.04853743
126	0xbdfc97b4	-0.123336226
127	0x3d6e60c2	0.058197744
128	0xbd17f408	-0.03709796
129	0x3db8c8d4	0.0902268
130	0xbdbc9dde	-0.09209798
131	0x3e3f0a8f	0.18656372
132	0x3db07fd8	0.08618134
133	0x3cf16cbd	0.029470796
134	0xbdd32864	-0.10310438
135	0xbd28d615	-0.04121979
136	0x3e087cfb	0.13328926
137	0x3d1c2c05	0.038127918
138	0x3b55aea0	0.0032605305
139	0x3b848985	0.004044714
140	0x3c82cdd0	0.01596728
141	0x3c470471	0.012147055
142	0x3d740f68	0.059585005
143	0x3cd99ae7	0.026563121
144	0x3d711707	0.05885985
145	0x3d186ee4	0.03721513
146	0x3cf778fe	0.03020906
147	0x3e2d536d	0.16926356
148	0xbc3599c4	-0.011084024
149	0x3d809844	0.06279042
150	0xbd45b6a8	-0.048269898
151	0x3d21f2e6	0.039538287
152	0x3aba6eed	0.0014223732
153	0xbc85ec42	-0.016348008
154	0x3c8904e9	0.016725974
155	0xbe40f7a9	-0.18844475
156	0x3dab7901	0.08372689
157	0xbde25b6b	-0.11052593
158	0xbd409344	-0.047015443
159	0xbdddddbe	-0.108333096
160	0x3cada324	0.021195956
161	0x3caea7c1	0.021320226
162	0x3cadaa8b	0.021199485
163	0xbd60c5c8	-0.05487612
164	0xbe2b71eb	-0.16742675
165	0xbd20391b	-0.03911696
166	0x3dea90e0	0.11453414
167	0x3d401487	0.046894576
168	0xbe023be0	-0.12718153
169	0x3d02aa03	0.031900417
170	0xbc093173	-0.008373606
171	0xbe0bb47d	-0.1364307
172	0xbdd1c6fd	-0.10243032
173	0xbe0d5307	-0.13801204
174	0xbdb4b1ec	-0.088229984
175	0xbe0a88fe	-0.13528821
176	0x3e0a6d4a	0.13518253
177	0xbde808d5	-0.113298096
178	0xbd5d3280	-0.05400324
179	0xbd509851	-0.05092651
180	0xbdd00c3e	-0.10158585
181	0xbe0707b8	-0.13186538
182	0xbd09845e	-0.0335735
183	0x3e4a8d4a	0.1978046
184	0x3df18327	0.117925934
185	0xbcd95dd4	-0.026533999
186	0x3c37dbb9	0.01122182
187	0x3dd4235a	0.10358305
188	0x3dd72fdf	0.105071776
189	0xbd1545bf	-0.03644347
190	0x3d500d57	0.050793972
191	0x3e0754d9	0.1321596
192	0x3dd27d02	0.102777496
193	0xbc2367f5	-0.009973516
194	0xbd4271d9	-0.047471855
195	0xbc73a5db	-0.014871086
196	0xbe157bff	-0.14598082
197	0x3debeba0	0.11519551
198	0xbbb93858	-0.0056524687
199	0x3e042a88	0.1290685
200	0xbd323472	-0.043507047
201	0xbd7a71a5	-0.061143536
202	0xbe7d93c2	-0.24763396
203	0xbe01a549	-0.12660708
204	0xbbe64a6c	-0.0070279147
205	0xbc7f063b	-0.01556545
206	0xbdec0adc	-0.11525509
207	0x3e0963f4	0.13417035
208	0x3dd09e46	0.10186438
209	0xbe2d2f7d	-0.16912647
210	0xbe3bebcb	-0.18351667
211	0xbd007c30	-0.031368434
212	0x3e42a089	0.19006552
213	0x3e3fd18d	0.18732281
214	0xbd954286	-0.07288079
215	0x3da37040	0.07980394
216	0xbdc41f6b	-0.09576305
217	0xbdab0be0	-0.08351874
218	0xbe4d6075	-0.20056327
219	0xbe2f0d3e	-0.17094895
220	0xbcb3acc9	-0.021932976
221	0x3d8f8411	0.070076115
222	0x3e010f26	0.12603435
223	0x3d87684e	0.066116914
224	0xbdb28b40	-0.08717966
225	0xbe62fc2f	-0.22166513
226	0xbdf3ff4c	-0.119139284
227	0xbb9de951	-0.0048190732
228	0x3d84b1e7	0.06479245
229	0xbde468d4	-0.11152807
230	0xbd434466	-0.04767265
231	0xbda88d75	-0.08230106
232	0xbd57fd90	-0.05273205
233	0xbe363e07	-0.17797099
234	0xbd8be90c	-0.068315595
235	0xbe411e49	-0.18859209
236	0xbd1807ef	-0.03711694
237	0xbe38d594	-0.18050224
238	0x3df90704	0.12159541
239	0x3d8e77f9	0.06956477
240	0xbe0753e1	-0.13215591
241	0x3dd137d8	0.102157295
242	0x3d42e0c7	0.047577646
243	0x3d0e1608	0.03468898
244	0xbe1768a8	-0.14786017
245	0xbdbcccdf	-0.092187636
246	0xbdbd93d4	-0.092567116
247	0xbe580e89	-0.21099295
248	0xbdc2a7f1	-0.095046885
249	0xbd482842	-0.048866518
250	0xbdb0420b	-0.08606347
251	0xbdb9fac9	-0.090810366
252	0xbdb89e9e	-0.09014629
253	0xbd41fa47	-0.047357824
254	0xbd58f58a	-0.05296854
255	0x3dcbfaaa	0.0995992

bias f4 [64]
0	0x3c39e3cb	0.011345814
1	0xbd0b8bd4	-0.034068897
2	0x3da6fed6	0.08154075
3	0xbd648909	-0.05579475
4	0x3d573b25	0.05254664
5	0xbd4f4d31	-0.050610725
6	0xbcf7f565	-0.03026838
7	0xbdcfbb6f	-0.10143172
8	0x3d007cbd	0.03136896
9	0xba02d531	-0.00049908744
10	0xbcba0ea0	-0.022712052
11	0x3d695c9a	0.056973077
12	0xbe365c13	-0.17808561
13	0x3d8d6b74	0.06905261
14	0x3ddc79ce	0.1076542
15	0x3e23e04f	0.16003536
16	0x3d69dfb2	0.057098098
17	0x3dccb3e8	0.09995252
18	0x3d141b79	0.036159012
19	0xbd3abb6f	-0.045588907
20	0x3d0db32a	0.034594692
21	0xbbc5a83f	-0.0060320194
22	0xbd55a138	-0.052155703
23	0x3b9da4a0	0.0048108846
24	0x3d8c3ab2	0.06847133
25	0x3dfed176	0.12442295
26	0x3d87446f	0.066048495
27	0x3d7b483c	0.061348185
28	0xbd9498b6	-0.0725569
29	0x3dbbcc35	0.09169809
30	0xbc346c80	-0.011012197
31	0xbd316bdb	-0.04331575
32	0xbda4aaf7	-0.080404215
33	0x3d27a6f9	0.040930722
34	0x3ced75f4	0.028986908
35	0x3d8aac89	0.0677119
36	0xbd9c21ce	-0.07623635
37	0xbdad41f4	-0.08459845
38	0xbdcbd313	-0.099523686
39	0xbd1f2a5d	-0.03885876
40	0xbdaa7b71	-0.08324326
41	0xbe15101e	-0.1455693
42	0xbd8c0b4a	-0.06838091
43	0xbcfee396	-0.03111438
44	0x3d786075	0.060638864
45	0xbdbb9b5b	-0.09160491
46	0xbd79bf8e	-0.060973696
47	0xbd4da814	-0.05020912
48	0x38abe9c4	8.197458e-05
49	0xbd821f1e	-0.063535914
50	0x3dc14b0e	0.09438144
51	0x3c5da995	0.013529201
52	0xbdb289ab	-0.08717664
53	0xbdf91ac7	-0.121633105
54	0xbdce1cd7	-0.100640945
55	0xbc1f0a87	-0.0097071
56	0x3e047af6	0.12937531
57	0xbd9b2084	-0.07574561
58	0xbde5c78a	-0.112197
59	0xbdd40030	-0.10351598
60	0x3bf1949d	0.0073724524
61	0xbde6cf23	-0.11269977
62	0xbd06ca7d	-0.03290795
63	0xbd94d938	-0.07267994

weight f4 [64, 64]
0	0xbd060816	-0.032722555
1	0x3d54d080	0.051956654
2	0xbd929181	-0.07156659
3	0xbdc1b0a4	-0.0945752
4	0xbdb79be7	-0.08965283
5	0x3d490616	0.04907807
6	0xbde40ca1	-0.11135221
7	0x3c8c8a0a	0.017155666
8	0x3e183253	0.14862947
9	0x3dd7488d	0.10511885
10	0xbe46be4c	-0.1940853
11	0xbe03f6e0	-0.12887144
12	0x3d77aa62	0.060465224
13	0xbe290b87	-0.16508304
14	0xbe8346ae	-0.25639862
15	0xbd4e5644	-0.050375238
16	0xbcacada8	-0.0210789
17	0xbd817578	-0.063212335
18	0xbe2e4645	-0.17018993
19	0x3d8b15a4	0.06791237
20	0x3de60c99	0.112328716
21	0x3e4d4634	0.20046312
22	0xbd534682	-0.051580913
23	0x3e49d723	0.19710974
24	0x3d6cc94c	0.05780916
25	0x3deb7f13	0.11498847
26	0xbd879792	-0.066207066
27	0xbada5361	-0.0016656929
28	0x3c5c3baa	0.013441959
29	0x3d412f74	0.047164395
30	0xbe047235	-0.12934192
31	0xbcb77df9	-0.022398936
32	0xbe3f61fe	-0.18689725
33	0xbc879a68	-0.016553119
34	0x3daaad88	0.0833388
35	0x3b57b26c	0.0032912744
36	0x3e14186f	0.14462446
37	0x3e8e6e40	0.2781849
38	0x3e8e0a1b	0.27742085
39	0x3dc4a215	0.09601227
40	0xbd2c76db	-0.042105537
41	0x3e272c81	0.1632557
42	0x3c9f3aec	0.019437276
43	0x3dd9e2df	0.10638975
44	0xbdf64785	-0.1202536
45	0xbe06a6dc	-0.1314959
46	0x3c8541e0	0.016266763
47	0x3dd57d2c	0.10424265
48	0x3dc7736d	0.097388126
49	0xbdce6770	-0.10078323
50	0xbe3d7478	-0.1850146
51	0x3e205ea1	0.15661098
52	0x3e0b81ca	0.1362373
53	0xbd40d95a	-0.047082283
54	0x3d50b7bc	0.050956473
55	0x3d99f7f4	0.075179964
56	0xbcd333fa	-0.02578162
57	0x3d1d2856	0.038368545
58	0xbdbf2ae3	-0.09334352
59	0x3e1b0727	0.15139447
60	0x3d81d5bd	0.063395955
61	0xbbb588b4	-0.005539978
62	0x3e4ea8cd	0.2018158
63	0xbd8f9bb2	-0.070121184
64	0xbd641536	-0.05568429
65	0x3c0b8e32	0.008517789
66	0xbd8ead5a	-0.06966658
67	0xbbe9aa50	-0.0071308985
68	0xbbd6d5d2	-0.006556251
69	0xbe271e1f	-0.16320084
70	0x3d2c38d8	0.042046398
71	0xbdf5ab98	-0.119956195
72	0x3d863bfc	0.0655441
73	0xbcf75b54	-0.030194916
74	0x3dc02624	0.09382275
75	0x3e037c2e	0.1284034
76	0xbdda0296	-0.106450245
77	0x3e3e8d96	0.18608698
78	0x3d725d98	0.05917129
79	0x3d6dcf74	0.05805917
80	0xbd02e707	-0.031958606
81	0x3ac22079	0.0014810703
82	0x3e4ac64b	0.19802205
83	0x3c5186e4	0.012788508
84	0x3aa93fc3	0.0012912679
85	0xbca264bd	-0.019823426
86	0xbdf20480	-0.118172646
87	0xbe2293aa	-0.15876642
88	0xbd0372fa	-0.032092072
89	0xbdded27d	-0.10879991
90	0xbd29865e	-0.04138791
91	0x3d07f31b	0.033190828
92	0x3c781e17	0.015143893
93	0x3d2d4d13	0.04230983
94	0x3cbe8eaf	0.023261396
95	0xbd0e49d4	-0.034738377
96	0x3e2f5783	0.17123227
97	0xbdb5317f	-0.08847331
98	0x3cd2012f	0.02563533
99	0xbdeb7d67	-0.11498528
100	0xbe056261	-0.1302581
101	0xbdd3cb87	-0.10341554
102	0x3c70a791	0.014688388
103	0xbd7f252e	-0.062291317
104	0xbd5759ff	-0.05257606
105	0xbdbe6aed	-0.09297738
106	0xbdaa4637	-0.08314174
107	0x3c50342b	0.01270775
108	0x385f5e42	5.3255128e-05
109	0xbdb2e5f5	-0.08735267
110	0x3b8af814	0.004240999
111	0xbdea0a70	-0.11427772
112	0xbdab14c3	-0.08353569
113	0xbdb297b9	-0.08720345
114	0x3da24706	0.07923703
115	0xbe408d19	-0.18803824
116	0x3d1a7d8b	0.037717383
117	0xbd49acc5	-0.04923703
118	0xbe269c0e	-0.16270468
119	0xbc799ea0	-0.015235573
120	0x3ca5630b	0.020188829
121	0xbce356e2	-0.02775139
122	0x3cf1c6bb	0.029513707
123	0x3bb1d77b	0.0054272986
124	0xbdb6a0d3	-0.089173935
125	0x3dd7453b	0.105112515
126	0xbe12ee3e	-0.14348695
127	0x3dc31cf6	0.09527008
128	0x3d8dd572	0.06925477
129	0xbe6130ef	-0.21991323
130	0x3b5cd99d	0.0033699044
131	0x3d2e44ee	0.042546205
132	0x3ddfaec0	0.10922003
133	0xbc94ed1d	-0.01817947
134	0x3e190a91	0.14945437
135	0xbe0e4bf4	-0.13896161
136	0x3daf0239	0.08545346
137	0x3d955408	0.07291418
138	0xbdcc4f2f	-0.099760406
139	0x3d1cfb41	0.038325552
140	0x3d1316a9	0.035910282
141	0xbcaf811c	-0.021423869
142	0xbc843372	-0.016137812
143	0x3e06cb65	0.13163526
144	0xbbc54daf	-0.0060212235
145	0xbd6c038c	-0.05762057
146	0x3c757258	0.014980875
147	0x3d54170d	0.051779795
148	0x3c879f18	0.016555354
149	0xbe1ee514	-0.15517074
150	0x3db5732a	0.088598564
151	0xbd81ca2d	-0.0633739
152	0x3d7a4ac9	0.061106477
153	0xbd3c6961	-0.045998935
154	0x3dbd832b	0.09253534
155	0xbe0c6f5a	-0.13714352
156	0x3d87cc7b	0.066307984
157	0x3cc7068e	0.024295118
158	0x3e202711	0.15639903
159	0xbceb3f8b	-0.028716823
160	0x3d915e14	0.07098022
161	0xbcb7d40a	-0.022439975
162	0x3cd8ece0	0.026480138
163	0xbd6d77cf	-0.057975587
164	0x3d1b0ee0	0.037855983
165	0xbe1ad2c5	-0.15119465
166	0xbd35f259	-0.044420574
167	0xbd81105d	-0.06301949
168	0xbcbcb354	-0.023034729
169	0xbe2eb0c2	-0.17059615
170	0xbe0f1e84	-0.13976485
171	0xbd6734a4	-0.056446686
172	0xbdbbbb70	-0.0916661
173	0xbdfafbba	-0.12255044
174	0xbdab0396	-0.08350293
175	0x3cd83445	0.026392112
176	0xbcb6bd87	-0.02230717
177	0x3dd4e5b3	0.10395374
178	0x3d430436	0.047611438
179	0xbe007eeb	-0.12548415
180	0x3e07f042	0.13275245
181	0xbe176844	-0.14785868
182	0xbda60e5e	-0.08108209
183	0xbddf56e8	-0.10905248
184	0x3d2630c1	0.04057384
185	0xbd2aaccd	-0.041668702
186	0x3b3747b9	0.0027966334
187	0xbdfcb217	-0.123386554
188	0xbe589265	-0.21149595
189	0xbd2a04ee	-0.041508608
190	0x3d70bafd	0.058772076
191	0x3d942839	0.07234234
192	0x3da8e377	0.082465105
193	0x3e38a07e	0.18029973
194	0x3cb8521b	0.022500088
195	0xbdf6c02f	-0.12048375
196	0xbdc4b618	-0.09605044
197	0xbd4e77bd	-0.05040716
198	0x3d47d036	0.04878255
199	0x3d511bf6	0.051052056
200	0xbd59b86a	-0.053154387
201	0xbb3afeb8	-0.0028533172
202	0xbe4793ae	-0.19489929
203	0xbaa1f923	-0.0012357574
204	0x3da3b87a	0.079941705
205	0xbd9a9676	-0.075482294
206	0xbe0e7c45	-0.13914593
207	0x3d644bcf	0.05573636
208	0x3d3928f1	0.04520506
209	0xbc117658	-0.008878313
210	0xbe2810c4	-0.16412646
211	0xbe1f0ef6	-0.15533051
212	0x3e2ab333	0.16669922
213	0x3e3072a1	0.17231227
214	0xbcfd2756	-0.030902546
215	0x3e255fe2	0.16149858
216	0x3d9942bc	0.07483432
217	0x3dd1a6ba	0.10236879
218	0xba8dd174	-0.0010819868
219	0xbd276430	-0.04086703
220	0xbc1b9e54	-0.009498198
221	0xbabcb2ba	-0.0014396526
222	0xbde419af	-0.11137711
223	0x3d5bf237	0.05369779
224	0xbdeddde6	-0.116145894
225	0x3a51a002	0.00079965603
226	0xbe46c913	-0.19412641
227	0x3ddc3f5f	0.107542746
228	0xbc66326e	-0.014050109
229	0x3d5c97f4	0.05385585
230	0x3e0c793a	0.1371812
231	0x3cd671ff	0.026177404
232	0x3d0f553f	0.034993406
233	0x3ded86f3	0.11598005
234	0xbb66262a	-0.0035117962
235	0xbdd016e3	-0.10160615
236	0x3d77468a	0.060370006
237	0xbe1a2247	-0.15052138
238	0xbdf0a94b	-0.1175104
239	0x3df1d915	0.11808983
240	0x3e3a01e0	0.18164778
241	0xbe20afbe	-0.1569204
242	0xbe142d19	-0.14470328
243	0x3dad5fda	0.08465548
244	0x39f40f45	0.00046550683
245	0xbcb35cc2	-0.021894816
246	0x3c800599	0.01562767
247	0xbd931ec3	-0.07183602
248	0x3d73ac9d	0.05949079
249	0xbd9f1496	-0.07767598
250	0xbd074058	-0.033020347
251	0xbd40a6bd	-0.047034014
252	0x3e3106b5	0.17287715
253	0xbdc8c6ee	-0.09803568
254	0xbd8d9221	-0.069126375
255	0x3df7c584	0.1209822

bias f4 [64]
0	0xbe004c1a	-0.1252903
1	0x3d032d80	0.032025814
2	0x3de12752	0.10993828
3	0x3da2d0e7	0.07950001
4	0x3d997e0d	0.074947454
5	0x3e0977b0	0.13424563
6	0xbdbb9df0	-0.091609836
7	0xbde73ece	-0.11291276
8	0x3d13d02a	0.036087193
9	0xb8bb5ce9	-8.934161e-05
10	0xbc7f7ee8	-0.015594222
11	0x3d98544a	0.07437952
12	0x3dc3cee0	0.09560943
13	0x3db5990b	0.08867081
14	0x3deeea66	0.11665802
15	0xbbca7712	-0.006178745
16	0xbd288b2b	-0.041148346
17	0xbdf3c196	-0.11902158
18	0xbdf5359a	-0.11973114
19	0xbd50a238	-0.050935954
20	0x3dc5ee6f	0.09664618
21	0x3e08f727	0.13375531
22	0x3daa361e	0.08311103
23	0xbbbbd83d	-0.0057325647
24	0xbcee817a	-0.029114474
25	0xba8de93a	-0.0010826953
26	0x3d4cf069	0.05003396
27	0x3daf2b0f	0.08553135
28	0x3cb5c429	0.022188263
29	0x3d1e8964	0.038705245
30	0x3e0ada07	0.13559733
31	0xbe1152cf	-0.14191745
32	0x3d808ab6	0.06276457
33	0xbde3d9fc	-0.111255616
34	0xbd57faa3	-0.05272926
35	0x3d0aaf5f	0.033858653
36	0xbdeaa9bf	-0.11458158
37	0xbd29a73b	-0.04141925
38	0x3dac6c20	0.08419061
39	0x3cfe47b6	0.031040054
40	0xbca415f1	-0.020029994
41	0xbdb20938	-0.086931646
42	0x3d8185b8	0.06324333
43	0x3e10396a	0.14084402
44	0xbd3b326c	-0.045702383
45	0x3d90c726	0.070692345
46	0x3d273265	0.040819544
47	0x3d3b40ec	0.04571621
48	0x3c221102	0.00989175
49	0x3d625c70	0.055263937
50	0xbcd0e468	-0.025499538
51	0x3daaf45d	0.0834739
52	0x3d31bfe7	0.043395903
53	0x3df246fe	0.11829947
54	0xbd1b7085	-0.037949104
55	0x3dbacd8c	0.09121236
56	0x3deef6a0	0.11668134
57	0x3dd01286	0.10159783
58	0xbd51cab0	-0.05121869
59	0xbdc1cc4a	-0.09462793
60	0x3db06405	0.08612827
61	0xbd5cfab8	-0.05395004
62	0x3d8eeb07	0.06978422
63	0x3c4f780b	0.012662898

weight f4 [64, 64]
0	0xbcfb4e78	-0.030677065
1	0xbd139297	-0.03602847
2	0xbdff8f87	-0.124785475
3	0xbd3d7dd1	-0.046262566
4	0xbd374ce0	-0.044751048
5	0xbd531d30	-0.051541507
6	0xbddc7146	-0.10763793
7	0xbc467910	-0.0121138245
8	0xbdf6e480	-0.12055302
9	0xbdefa3ee	-0.11701189
10	0xbd9b3a38	-0.07579464
11	0xbc89399f	-0.016751109
12	0x3d6c0b94	0.05762823
13	0xbda463be	-0.08026837
14	0xbda4a3c2	-0.08039047
15	0x3d14fa07	0.036371257
16	0xbdeb2c27	-0.11483031
17	0xbdc28a76	-0.094990656
18	0xbcaf6a90	-0.021413118
19	0xbdd30fee	-0.10305773
20	0x3ca648c0	0.020298362
21	0x3dbbb269	0.091648884
22	0x3c07c93e	0.008287726
23	0xbdf2c5ef	-0.11854159
24	0x3c976a70	0.01848337
25	0x3dc2bc8c	0.09508619
26	0xbdc6c8be	-0.09706257
27	0xbd5efbe5	-0.054439444
28	0xbd271dfd	-0.040800083
29	0x3aee6bbe	0.0018190069
30	0xbdeceb7b	-0.11568352
31	0x3d63d904	0.055626884
32	0xbd24b5a2	-0.04021228
33	0x3c9cfd68	0.019163802
34	0x3d9d0964	0.07667807
35	0x3cfbc828	0.03073509
36	0x3b150040	0.0022735745
37	0x3ccd5ed0	0.025069624
38	0x3d030520	0.03198731
39	0xbded3de6	-0.11584072
40	0x3d8b9156	0.0681483
41	0x3d6553d0	0.055988133
42	0x3d29cb0b	0.041453402
43	0x3dba3526	0.090921685
44	0xbd96565a	-0.07340689
45	0xbace9481	-0.001576081
46	0x3dd31b18	0.10307902
47	0x3d88a61b	0.06672307
48	0xbdd58ea6	-0.10427599
49	0x3d7f4260	0.06231916
50	0x3dd7f25c	0.10544273
51	0xbddecc3e	-0.108788
52	0xbd2d8bea	-0.04236976
53	0xbba7e400	-0.0051236153
54	0xbcd68b62	-0.02618951
55	0x3db16aff	0.08662986
56	0x3ce47b27	0.027890755
57	0x3d58b09e	0.05290281
58	0x3de039e2	0.1094854
59	0x3cd059c0	0.025433421
60	0x3db042b2	0.08606471
61	0x3db9f332	0.09079589
62	0x3d9522e8	0.072820485
63	0x3dd630eb	0.10458549
64	0x3d35abd8	0.044353336
65	0x3d766980	0.060159206
66	0xbd1d4b98	-0.03840217
67	0xbdb484d2	-0.08814396
68	0x3d657339	0.056018088
69	0xbd22f8b0	-0.039787948
70	0xbdbe2758	-0.09284848
71	0x3ca35c80	0.019941568
72	0x3dfc28ab	0.12312444
73	0xbdee8fc6	-0.11648516
74	0x3df92eb7	0.12167113
75	0xbc9c73f7	-0.019098265
76	0xbdc8118a	-0.0976897
77	0xbc9b25f0	-0.018938988
78	0xbdd1d2a5	-0.102452554
79	0x3de3e7fb	0.11128231
80	0x3d08a212	0.033357687
81	0xbdb67bb8	-0.08910316
82	0x3c10ae80	0.008830667
83	0x3db80fee	0.08987413
84	0xbd76e328	-0.060275227
85	0xbd0bb4d1	-0.034107987
86	0xbda377fa	-0.07981868
87	0xbdd46f46	-0.10372786
88	0x3dfb27e6	0.122634694
89	0xbdf0b37b	-0.11752983
90	0xbd9fa362	-0.07794835
91	0xbd57ddc9	-0.052701745
92	0xbde35055	-0.110993065
93	0xbca43091	-0.02004269
94	0x3de567f7	0.1120147
95	0xbdbac95f	-0.0912044
96	0x3a94505a	0.001131545
97	0x3daeb1de	0.08530019
98	0x3d1ae78c	0.037818477
99	0xbdc34242	-0.09534122
100	0xbd403df4	-0.046934083
101	0x3d12aa3b	0.035806876
102	0x3db41e60	0.08794856
103	0x3d3f3190	0.046678126
104	0x3db43524	0.08799198
105	0xbd756bc0	-0.05991721
106	0x3def09a0	0.11671758
107	0xbdd2c69c	-0.10291788
108	0x3cd0e861	0.025501432
109	0x3def6f97	0.11691206
110	0xbd67f214	-0.056627348
111	0xbdec545f	-0.1153953
112	0x3dd31488	0.103066504
113	0x3dce97e5	0.10087565
114	0x3d7b9b1c	0.06142722
115	0xbd6f4bcb	-0.05842189
116	0x3cf0a37d	0.029374832
117	0xbdad8134	-0.08471909
118	0xbd018058	-0.03161654
119	0x3cd17e18	0.025572821
120	0x3dcdf6a2	0.10056807
121	0xbdea7a9f	-0.11449169
122	0x3d8dfedc	0.06933376
123	0x3dd45132	0.10367049
124	0xbd6e26a1	-0.05814231
125	0xbdf0520a	-0.11734398
126	0x3d6b7b62	0.057490714
127	0xbde74c4e	-0.11293851
128	0xbdbc2627	-0.091869645
129	0xbde01d07	-0.109430365
130	0x3bc5802b	0.0060272417
131	0xbd010f24	-0.03150858
132	0x3d75fec8	0.06005743
133	0x3e1baf45	0.15203579
134	0x3dbb20f6	0.09137146
135	0x3dd7abe6	0.10530834
136	0x3df84ca8	0.12123996
137	0x3dd600b5	0.104493536
138	0x3ddaed0f	0.106897466
139	0xbe165aa3	-0.14683013
140	0x3e3611c3	0.17780213
141	0x3e1e14e5	0.15437658
142	0x3dffb95b	0.124865256
143	0x3aabc409	0.0013104688
144	0xbd57d507	-0.052693393
145	0x3dd7e2b4	0.10541287
146	0xbd2d74d0	-0.04234773
147	0x3d68ae8c	0.056807086
148	0x3d961438	0.07328075
149	0xbe0d4718	-0.13796651
150	0x3e87583f	0.26434514
151	0xbddd0ec9	-0.10793836
152	0xbcb1602c	-0.021652304
153	0x3e1b3014	0.15155059
154	0x3e3e2ad3	0.18571024
155	0xbb0e7b3a	-0.002174093
156	0xbc5b88fc	-0.013399359
157	0xbdb9a749	-0.0906511
158	0xbd086b41	-0.03330541
159	0x3e80fb23	0.25191602
160	0x3d250838	0.04029104
161	0xbd686dd0	-0.05674535
162	0x3e705546	0.23470029
163	0x3e1ca88a	0.15298668
164	0xbc203654	-0.009778578
165	0x3e31b5d0	0.17354512
166	0x3d920d7d	0.07131479
167	0x3dad0324	0.08447865
168	0xbe8b8282	-0.27248007
169	0x3d76e1ac	0.06027381
170	0xbe1bbcab	-0.1520869
171	0x3dab7ef3	0.08373823
172	0xbcb7b946	-0.022427212
173	0xbe0eba89	-0.13938345
174	0xbdb7c2a8	-0.089726746
175	0x3e20ba03	0.15695958
176	0xbc476426	-0.012169873
177	0xbd2501d6	-0.040284954
178	0x3cfc9820	0.030834258
179	0x3e086a8b	0.13321893
180	0x3cbc6a29	0.02299984
181	0x3e1e3780	0.15450859
182	0x3c8960f9	0.016769873
183	0xbdb0612d	-0.08612285
184	0x3d3a0109	0.045411143
185	0xbd871f5f	-0.065977804
186	0x3d9a5400	0.07535553
187	0x3cb06ae0	0.021535337
188	0x3ddcb33e	0.10776375
189	0x3c6b9aa0	0.014380127
190	0x3d3de4e6	0.046360873
191	0xbd7c44b2	-0.06158895
192	0xbe2faa92	-0.17154911
193	0xbe41a7a9	-0.18911614
194	0xbdf948a9	-0.12172062
195	0x3dfea099	0.12432975
196	0xbe11fe42	-0.14257148
197	0xbcf2d067	-0.02964039
198	0x3d09bfa8	0.033630043
199	0x3c73b870	0.014875516
200	0xbe6597fb	-0.22421257
201	0xbd2839ac	-0.041070625
202	0x3c08b149	0.008343049
203	0xbea27f27	-0.31737635
204	0xbccbbcee	-0.024870362
205	0x3e271c6a	0.16319433
206	0x3de8d6c6	0.1136909
207	0xbe994dd1	-0.29942182
208	0xbe5e4d41	-0.21709158
209	0x3db90c8a	0.09035595
210	0x3dbeb724	0.09312275
211	0xbc2f57f0	-0.010702118
212	0x3c93ab11	0.018025907
213	0xbe6cc66c	-0.23122567
214	0x3dd9657d	0.106150605
215	0xbe49aeb7	-0.19695555
216	0x3d923da4	0.07140663
217	0x3dcf2b5e	0.101156935
218	0x3e07fde7	0.1328045
219	0xbe20dc11	-0.15708949
220	0xbdcc5dc2	-0.099788204
221	0xbdb35dc2	-0.08758117
222	0xbbea3b3b	-0.007148174
223	0x3d28a048	0.04116848
224	0xbe60658e	-0.2191374
225	0xbdcbe01c	-0.09954855
226	0xbdd28cf1	-0.10280789
227	0x3d215b74	0.039393857
228	0x3e3079fd	0.17234035
229	0x3e4b6bea	0.19865385
230	0x3b79915b	0.0038081023
231	0x3dd46a5c	0.10371849
232	0xbf1d3f4e	-0.6142472
233	0x3d9da446	0.07697348
234	0xbe215af4	-0.15757352
235	0x3e095a6c	0.134134
236	0xbeb7816b	-0.35840926
237	0xbea029aa	-0.31281787
238	0xbd5ace09	-0.053419147
239	0x3d9843e7	0.07434826
240	0xbc1cc4c8	-0.009568401
241	0x3d507306	0.050890945
242	0xbd2d06e0	-0.042242885
243	0x3dfab1e5	0.12240962
244	0xbe4875ae	-0.19576141
245	0xbdd41360	-0.10355258
246	0x3dea55fc	0.114421815
247	0xbe09ec03	-0.13468938
248	0xbeb4a07a	-0.35278684
249	0xbd9b39d3	-0.075793885
250	0xbdf08732	-0.117445365
251	0xbc2391d0	-0.009983495
252	0xbd662a00	-0.056192398
253	0xbdc92e16	-0.09823243
254	0xbe1a79e8	-0.15085566
255	0xbea89da0	-0.32932758

bias f4 [64]
0	0xbdd11b95	-0.10210339
1	0xbd3d222a	-0.04617516
2	0x3df8fcda	0.121576026
3	0xbcdc6d7d	-0.026907677
4	0x3e089fa0	0.13342142
5	0x3dd67032	0.10470618
6	0x3c7ebdee	0.015548212
7	0x3d7e35fb	0.0620632
8	0x3de3f259	0.111302085
9	0x3dc8e7cd	0.098098375
10	0xbdb5fff2	-0.08886708
11	0x3dc484e6	0.09595661
12	0xbda3d13c	-0.07998893
13	0xbdc1fa98	-0.09471625
14	0x3b8ecd9f	0.004358008
15	0xbdb19ade	-0.08672117
16	0x3d320158	0.043458313
17	0x3daab8f2	0.08336057
18	0x3d634706	0.055487655
19	0x3c93a45b	0.018022707
20	0xbc04e170	-0.008110389
21	0x3d8f8c19	0.070091434
22	0xbd27431c	-0.040835485
23	0x3d302375	0.043002564
24	0xbcc00f4f	-0.0234448
25	0xbdf0e6de	-0.117627844
26	0x3d85dca6	0.06536226
27	0xbd0b2cfc	-0.033978447
28	0x3d693cda	0.0569428
29	0x3da16776	0.07881062
30	0x3d356574	0.044286206
31	0x3d695d83	0.056973945
32	0x3c6314d9	0.013859951
33	0x3e011488	0.12605488
34	0x3c912419	0.017717408
35	0x3d45c16c	0.048280165
36	0x3e064f4d	0.13116188
37	0x3e110a69	0.14164127
38	0x3da30757	0.07960384
39	0x3dcbefa4	0.09957817
40	0x3daaffa9	0.083495446
41	0x3c089180	0.008335471
42	0x3ceec4b0	0.029146522
43	0x3c171ee8	0.009223677
44	0xbde4c4a6	-0.1117032
45	0x3de4dd77	0.111750536
46	0xbdf17922	-0.117906824
47	0xbd962878	-0.073319376
48	0xbcf2fa50	-0.029660374
49	0xbd3255cb	-0.04353885
50	0x3d0cf0f5	0.034409482
51	0xbdfecb6b	-0.12441143
52	0x3dd67e73	0.10473337
53	0x3dfb51a3	0.1227143
54	0x3d554813	0.05207069
55	0x3b22804c	0.002479571
56	0x3e2014e8	0.15632975
57	0x3e2bfb1d	0.16795011
58	0xbd51d230	-0.05122584
59	0xbd343817	-0.043998804
60	0x3d90ae80	0.07064533
61	0xbd0d9c8a	-0.034573115
62	0x3d8f374b	0.06992968
63	0xbb081ae8	-0.002076799

weight f4 [64, 64]
0	0x3c452992	0.012033837
1	0xbd94f61a	-0.07273503
2	0x3df9f275	0.12204448
3	0x3e85b73d	0.26116362
4	0xbcd1dee9	-0.025618987
5	0x3da070a8	0.078339875
6	0x3d6156c4	0.055014387
7	0xbd5ef4ec	-0.054432794
8	0x3da0d956	0.078539535
9	0x3e35d72e	0.17757866
10	0x39f73400	0.00047150254
11	0x3d209b92	0.039210863
12	0xbddc2c04	-0.10750583
13	0x3d306aa8	0.043070465
14	0x3e2f351c	0.17110103
15	0xbddff906	-0.10936169
16	0x3deb008d	0.114747144
17	0x3cda8ef4	0.026679493
18	0x3d593fa5	0.05303921
19	0xbdba474d	-0.09095631
20	0x3d0b04c0	0.033940077
21	0x3cdbf500	0.026850224
22	0x3e53e03a	0.20691004
23	0x3dfc1878	0.123093545
24	0xbdf7805a	-0.12085028
25	0x3aa4e690	0.001258092
26	0x3dbb9d6d	0.09160886
27	0xbda3ff66	-0.08007698
28	0xbd265f55	-0.04061826
29	0x3b112c1d	0.0022151538
30	0x3d59b584	0.053151622
31	0x3d8cb25a	0.06869955
32	0x3c008810	0.00784494
33	0x3db7ae06	0.08968739
34	0xbdfa4b39	-0.12221379
35	0x3d1f52fe	0.038897507
36	0xbd4571b1	-0.048204128
37	0x3cb223a6	0.021745514
38	0xbdc0651b	-0.09394284
39	0x3d825650	0.06364119
40	0xbdfca8ad	-0.1233686
41	0xbc5ed280	-0.013599992
42	0xbdd0becc	-0.101926416
43	0xbcfbe068	-0.030746654
44	0x3d2b5e2c	0.041837856
45	0x3d8e1f1f	0.0693953
46	0xbd48a3c8	-0.04898432
47	0xbdbfa57f	-0.09357738
48	0xbbec5200	-0.0072119236
49	0xbc9dc460	-0.019258678
50	0x3ca4455c	0.020052604
51	0xbd17a96d	-0.03702681
52	0xbd353ac1	-0.044245485
53	0xbe0647ba	-0.13113299
54	0xbdbb4050	-0.09143126
55	0x3e2bdf9e	0.16784522
56	0x3dbea6c0	0.09309149
57	0x3ddb26ba	0.10700746
58	0xbddfdfe6	-0.10931377
59	0x3cb7c855	0.022434393
60	0x3e057f12	0.13036755
61	0x3dfe6d40	0.124231815
62	0x3df9e18f	0.12201225
63	0xbd963c5e	-0.07335733
64	0x3cf2ff02	0.029662613
65	0x3d770313	0.060305666
66	0x3c198205	0.009369378
67	0xbe432433	-0.19056778
68	0xbd44f7b3	-0.048087787
69	0xbdb49c0d	-0.08818827
70	0x3dbec5e8	0.09315091
71	0x3dc4a1d1	0.096011765
72	0x3d2b454f	0.041814145
73	0xbb99ac8d	-0.004689759
74	0x3b3b09c0	0.0028539747
75	0x3d77ee3d	0.060529936
76	0x3dac15e2	0.08402611
77	0x3dd9584e	0.10612546
78	0xbdac05d9	-0.08399553
79	0xbdb68d6e	-0.08913694
80	0xbcb2f474	-0.02184508
81	0x3d327782	0.043571003
82	0xbc9d753c	-0.01922094
83	0x3de1ab14	0.11018959
84	0xbd1e1a90	-0.03859955
85	0xbd81fca2	-0.06347014
86	0x3ce98efc	0.028510563
87	0xbd92e842	-0.07173206
88	0x3c95e20f	0.01829627
89	0x3bf92d0a	0.007604246
90	0xbd17433f	-0.036929365
91	0xbdd4f09a	-0.103974536
92	0x3d669ff3	0.056304883
93	0x3db53cd8	0.08849496
94	0xbd888300	-0.06665611
95	0xbdfa4afb	-0.12221333
96	0xbc561660	-0.013066858
97	0x3d2f5c67	0.04281273
98	0x3e4d6e88	0.20061696
99	0x3e2ed62c	0.17073888
100	0xbd7011d0	-0.058610737
101	0x3b55f0bd	0.0032644712
102	0x3e02388e	0.12716886
103	0xbdda9020	-0.10672021
104	0x3d9a6ce3	0.075403
105	0x3d4943b0	0.049136817
106	0xbd3fdc64	-0.04684104
107	0xbb9c3f1a	-0.0047682645
108	0xbdd14a78	-0.10219282
109	0x3e3c500b	0.18389909
110	0xbdb47390	-0.08811104
111	0xbcdc8d16	-0.026922744
112	0x3b67cb80	0.0035369098
113	0xbd688c8a	-0.056774653
114	0x3de13ebc	0.10998294
115	0xbd4f175c	-0.050559387
116	0x3e2946e0	0.16530943
117	0x3d87b58f	0.066264264
118	0x3dc28bf5	0.09499351
119	0x3d96c8a2	0.073624864
120	0x3d88c2dd	0.06677792
121	0x3d3c1e6a	0.045927443
122	0xbcf20db8	-0.029547557
123	0xbdadc753	-0.08485284
124	0xbd65ae5c	-0.056074485
125	0xbdc50041	-0.09619189
126	0x3de539b3	0.11192646
127	0x3e1ce3ca	0.1532127
128	0x3d85c6dc	0.0653207
129	0x3d17a590	0.037023127
130	0xbbf625c0	-0.0075118244
131	0xbd18a090	-0.0372625
132	0xbcbefdc0	-0.023314357
133	0xbd2fbf08	-0.04290679
134	0xbde35d88	-0.11101824
135	0xbda451cc	-0.08023414
136	0x3c8d99e0	0.017285287
137	0xbda6c6ac	-0.081433624
138	0x3c9144a0	0.017732918
139	0x3db53a8a	0.08849056
140	0xbdd5aeda	-0.10433741
141	0xbdaf0756	-0.08546321
142	0x3bb19e40	0.005420476
143	0xbd40dd90	-0.0470863
144	0x3d8cf7bc	0.06883189
145	0x3dc34be0	0.095359564
146	0x3d2a9520	0.041646123
147	0x3dad10b0	0.084504485
148	0xbd143928	-0.03618732
149	0xbdd06214	-0.10174957
150	0x3dd6d6d2	0.104901925
151	0x3dc954e6	0.09830646
152	0xbda685a8	-0.08130962
153	0xbda6a220	-0.08136392
154	0xbdc170e8	-0.09445363
155	0xbbfcb460	-0.007711932
156	0x3d95873e	0.07301186
157	0xbd5110c8	-0.051041394
158	0xbc44de60	-0.012015909
159	0xbd8067b4	-0.0626978
160	0x3de9f8fe	0.114244446
161	0xbdcd1e6a	-0.10015567
162	0xbcf5a170	-0.029984206
163	0x3bf201a0	0.0073854476
164	0xbdcb00e8	-0.09912282
165	0xbbef2480	-0.0072980523
166	0x3d6eb09c	0.058273897
167	0xbd43f0dc	-0.047837123
168	0x3c84eaa8	0.016225174
169	0x3dc8bad6	0.09801261
170	0xbcf2b680	-0.029628038
171	0xbda8fb90	-0.08251107
172	0xbd5503d8	-0.05200562
173	0x3dcdf150	0.10055792
174	0x3d66fb80	0.056392193
175	0xbdaaca7e	-0.083394036
176	0xbd422ff8	-0.047409028
177	0xbd57725c	-0.052599296
178	0x3de31a86	0.11089043
179	0x3cff9270	0.031197757
180	0xbdab624e	-0.083683595
181	0xbd84fe1a	-0.064937785
182	0xbd98fd42	-0.0747018
183	0x3bf56d40	0.0074898303
184	0xbda2901a	-0.079376414
185	0xbdeb47ee	-0.11488329
186	0xbd386b24	-0.045024052
187	0xbceba0f0	-0.028763264
188	0xbd8d0fd6	-0.06887786
189	0xbd99b4b2	-0.07505168
190	0x3db0f74c	0.08640918
191	0x3d0a8530	0.033818424
192	0xbd94675d	-0.072462775
193	0xbdc07363	-0.09397008
194	0xbd3ca316	-0.04605397
195	0x3ecc9a1a	0.3996132
196	0x3de48dc2	0.11159851
197	0x3df009f7	0.11720651
198	0xbc305043	-0.010761323
199	0x3ddba53e	0.10724877
200	0xbd203197	-0.039109793
201	0x3e717a03	0.235817
202	0xbdcdb6f6	-0.10044663
203	0xbdfcb7f8	-0.12339777
204	0x3dd6825e	0.10474084
205	0x3dd0bc10	0.1019212
206	0x3dac896f	0.08424651
207	0xbc6694e0	-0.0140735805
208	0x3cb3d41a	0.021951724
209	0x3d4f6fc1	0.050643686
210	0x3d147c35	0.036251266
211	0x3d8557d2	0.06510891
212	0xbc280f40	-0.010257542
213	0xbb4aac52	-0.0030925465
214	0x3a227fe9	0.00061988697
215	0x3e360b3c	0.17777723
216	0xbdcdad0c	-0.10042772
217	0xba8037df	-0.0009782276
218	0x3d2b5da0	0.041837335
219	0xbd362b1c	-0.044474706
220	0xbde92e89	-0.11385829
221	0x3ccc6f3f	0.02495539
222	0x3d3aa0f8	0.045563668
223	0x3e1daadb	0.15397207
224	0xbbf29c7b	-0.007403908
225	0x3d1c9aaa	0.038233437
226	0xbe20d690	-0.15706849
227	0x3d82d320	0.06387925
228	0x3d13c718	0.036078542
229	0xbc96b56b	-0.018397054
230	0xbd3b4097	-0.045715895
231	0x3e2d33c3	0.16914277
232	0x3da71cda	0.081598
233	0x3df50176	0.11963169
234	0xbdb12baa	-0.086509064
235	0x3d15fc94	0.03661783
236	0xbc5a94b0	-0.013341114
237	0xbe0fdf5c	-0.14050049
238	0xbdc4c430	-0.09607732
239	0x3d67a84e	0.056556992
240	0x3ccbd190	0.0248802
241	0x3dcfe046	0.10150199
242	0x3e064d32	0.13115385
243	0xbc16f860	-0.009214491
244	0x3d9979a0	0.07493901
245	0x3db36624	0.08759716
246	0xbca22561	-0.019793214
247	0x3e124146	0.14282712
248	0xbd07ee18	-0.03318605
249	0xbd03865f	-0.032110568
250	0xbdef4e26	-0.116848275
251	0x3dfc018a	0.12304981
252	0x3e325473	0.17415027
253	0x3da5cf59	0.08096189
254	0x3d8878c7	0.066636615
255	0xbddbc3d2	-0.10730709

bias f4 [64]
0	0xbc294f56	-0.010333857
1	0x3d1329c1	0.03592849
2	0x3bcb8580	0.006210983
3	0xbd021349	-0.031756673
4	0x3cadef85	0.021232376
5	0x3cb4ca7d	0.02206921
6	0xbdca0881	-0.09864903
7	0x3d3e74fa	0.046498276
8	0x3d554331	0.05206603
9	0xbdc70fcd	-0.09719811
10	0x3df77b4c	0.12084064
11	0xbd1569f4	-0.036477998
12	0x3c68e63e	0.01421505
13	0xbda4e83b	-0.08052107
14	0xbd2b729b	-0.041857343
15	0x3db4cf92	0.088286534
16	0xbdaae292	-0.08343996
17	0x3e0166da	0.12636891
18	0xbd26aa86	-0.040689968
19	0xbdecea73	-0.11568155
20	0xbd810902	-0.06300546
21	0x3d4cb74d	0.049979497
22	0x3deb002f	0.114746444
23	0x3e05f382	0.13081172
24	0x3d6a00c1	0.057129625
25	0x3da054d7	0.07828682
26	0xbb334b40	-0.0027358085
27	0xbcd4b7e3	-0.02596659
28	0xbd99052e	-0.07471691
29	0xbd6e8b3c	-0.058238253
30	0x3d087758	0.03331694
31	0x3d48cffc	0.049026474
32	0xbdf14f40	-0.11782694
33	0x3d1d473a	0.038398005
34	0x3d1bbf4c	0.03802423
35	0xbdefbf4e	-0.1170641
36	0x3dcc10db	0.099641524
37	0xbd2df598	-0.042470545
38	0x3dabce66	0.08388977
39	0xbca775c5	-0.0204419
40	0x3d7ca988	0.061685115
41	0x3d8ada93	0.06779971
42	0xbdb2380f	-0.087020986
43	0x3e091872	0.13388231
44	0xba120344	-0.00055699446
45	0xbbd97deb	-0.006637325
46	0xbd0a2372	-0.03372521
47	0x3bd6099f	0.0065319086
48	0x3d00ceb4	0.031447127
49	0x3d9e38e4	0.07725695
50	0x3d652bf8	0.055950135
51	0x3c8adc83	0.016950851
52	0x3d4e32b1	0.05034131
53	0x3df19fe5	0.117980756
54	0xbb89d571	-0.0042063524
55	0xbd7b4335	-0.06134339
56	0x3df27226	0.11838178
57	0xbcf09978	-0.029370055
58	0x3dd67595	0.10471646
59	0x3d35717c	0.04429768
60	0xbb0d88b3	-0.0021596372
61	0xbdf28c26	-0.118431374
62	0xbdf3150e	-0.1186925
63	0x3d90b511	0.07065786

weight f4 [1, 64]
0	0xbdd1c858	-0.10243291
1	0x3dd5401d	0.10412619
2	0x3dae4d1a	0.085108
3	0xbddbe45e	-0.10736917
4	0xbddd67f1	-0.10810841
5	0x3daf7899	0.08567924
6	0xbde5f299	-0.112279125
7	0x3dec81b0	0.115481734
8	0xbe103cfc	-0.14085764
9	0xbd831ae9	-0.06401617
10	0xbe287d13	-0.16453962
11	0x3d805eac	0.06268057
12	0xbe027345	-0.12739284
13	0xbdee8530	-0.11646497
14	0x3d0ace94	0.033888415
15	0x3e2bf895	0.16794045
16	0x3de9e3bc	0.1142039
17	0x3dc2f141	0.09518672
18	0xbdec8e07	-0.11550527
19	0xbdb29f2c	-0.08721766
20	0x3d83ea48	0.0644117
21	0xbd9951ea	-0.07486327
22	0xbd4b6550	-0.049657166
23	0x3dc5863e	0.09644745
24	0x3de08ac1	0.10963965
25	0x3e114df1	0.14189889
26	0xbdd02594	-0.101634175
27	0x3e237db2	0.15965918
28	0xbd2c3b50	-0.042048752
29	0x3e05e830	0.13076854
30	0xbe01ebeb	-0.12687652
31	0x3e25757a	0.16158095
32	0x3d6ac4e4	0.057316676
33	0xbe265f1e	-0.16247222
34	0xbd2d76f4	-0.04234977
35	0x3d803754	0.06260553
36	0x3e2534bb	0.16133396
37	0xbd383b14	-0.044978216
38	0x3c97734c	0.018487595
39	0xbe3f046d	-0.18654032
40	0xbe054a1e	-0.13016555
41	0x3ddc4ee3	0.10757234
42	0xbda6200d	-0.08111582
43	0x3dbef86a	0.09324725
44	0x3e417067	0.18890534
45	0x3e3de4dc	0.18544334
46	0x3d649a98	0.055811495
47	0x3e34220e	0.17591116
48	0x3e1f4626	0.15554103
49	0x3dad93c6	0.08475451
50	0xbd895ee2	-0.067075506
51	0xba98660e	-0.0011627094
52	0x3dc594de	0.09647535
53	0x3dbd6bd3	0.092490815
54	0xbe43123e	-0.19049928
55	0xbe4262d3	-0.18983011
56	0xbdec26d0	-0.115308404
57	0x3c80b350	0.015710503
58	0xbdeed6cc	-0.11662063
59	0x3e19e7d5	0.15029843
60	0xbe52e9e2	-0.20597032
61	0x3d3577b0	0.044303596
62	0x3dd24968	0.102679074
63	0xbe018e3a	-0.12651911
